ex3/models/MNIST_CNN/ckpt.pth (torch, 210719 bytes, 28 tensors)

weight f4 [16, 1, 3, 3]
-0.2731325 -0.15469535 0.15326245 -0.28515008 0.3119915 -0.008913758 0.12711258 0.2215844
0.07541584 -0.042966228 0.33683887 -0.27511224 0.09537184 0.10594298 0.13278708 -0.14177866
0.34060982 0.17743726 -0.02478108 -0.033265557 0.32658815 -0.3272946 -0.06747041 -0.32283226
0.13006769 0.24903734 -0.10878473 0.28457567 0.023979252 0.07680091 0.26103073 0.3541868
-0.1666067 -0.2778621 -0.011732975 0.23116876 -0.115742564 0.12127427 -0.31879362 0.08302678
0.1667704 0.20430769 -0.16690646 0.079760455 0.10795606 0.3541849 -0.20555542 0.3088437
0.29097188 -0.0935322 0.30113432 -0.28283095 0.09965431 0.27994728 -0.20431045 0.12962423
0.10541431 0.04924896 0.10247736 0.18165544 0.052158207 0.12634365 -0.05617536 -0.09807844
0.31704774 -0.0082174875 0.19641055 -0.12936226 -0.20315167 0.08934617 -0.0023868785 0.0047764755
0.016682431 -0.30276775 0.18690471 0.21870396 -0.14228895 0.08894205 0.21287134 0.23421611
0.21157487 -0.028421273 -0.27961498 -0.08612659 0.047892395 0.030170154 -0.23442155 -0.18981843
0.26059654 0.06812427 -0.003880148 0.060855057 -0.020835103 0.17583175 0.20330095 -0.28479883
0.16583443 0.1424584 -0.36256662 -0.18953934 0.12804177 -0.3616968 -0.10687018 -0.08668726
-0.08710452 -0.12030338 -0.12006216 0.12519594 -0.0801049 0.19885638 0.1245979 -0.024325024
-0.25203577 0.073262185 0.12333064 0.13307498 0.32642156 -0.1350552 -0.32706994 -0.08653033
-0.05192415 0.18890661 0.009980433 0.18452686 0.24049507 -0.0049006552 0.2579482 -0.23919767
0.29819608 0.33115962 0.04708315 0.23698953 -0.247952 0.2928698 0.16558129 -0.01981458
-0.22052072 0.045452002 0.08165134 0.087373145 -0.25239074 0.06282058 0.10170875 0.101486884
00000000: 06d8 8bbe 7568 1ebe d5f0 1c3e 31ff 91be
00000010: 5abd 9f3e 030b 12bc cd29 023e 05e7 623e
00000020: 9f73 9a3d 5bfd 2fbd 2576 ac3e 83db 8cbe
00000030: 5052 c33d a2f8 d83d 56f9 073e 6d2e 11be
00000040: 6964 ae3e 1db2 353e b101 cbbc 7741 08bd
00000050: 9036 a73e 2893 a7be ed2d 8abd 454a a5be
00000060: 7730 053e a503 7f3e 87ca debd e7b3 913e
00000070: 2370 c43c cc49 9d3d d2a5 853e f957 b53e
00000080: f29a 2abe f143 8ebe aa3b 40bc 81b7 6c3e
00000090: 700a edbd a55e f83d eb38 a3be f209 aa3d
000000a0: dcc5 2a3e 0936 513e 87e9 2abe 7359 a33d
000000b0: 1118 dd3d b957 b53e 1f7d 52be c320 9e3e
000000c0: 44fa 943e cf8d bfbd 472e 9a3e 38cf 90be
000000d0: 8f17 cc3d 4055 8f3e c236 51be 37bc 043e
000000e0: 75e3 d73d 47b9 493d a6df d13d e203 3a3e
000000f0: d8a3 553d 3b60 013e 2218 66bd 59dd c8bd
00000100: 1554 a23e a4a2 06bc d91f 493e 8a77 04be
00000110: fe06 50be 20fb b63d 2d6d 1cbb fb83 9c3b
00000120: 98a9 883c 6004 9bbe f363 3f3e eef3 5f3e
00000130: 32b4 11be 4027 b63d f2fa 593e 59d6 6f3e
00000140: 15a7 583e bbd3 e8bc b229 8fbe 2363 b0bd
00000150: d12a 443d 6627 f73c 340c 70be c35f 42be
00000160: e96c 853e bd84 8b3d 154a 7ebb 2743 793d
00000170: 61ae aabc 3d0d 343e 202e 503e 27d1 91be
00000180: 80d0 293e 9de0 113e 55a2 b9be 9a16 42be
00000190: 621d 033e 5330 b9be c1de dabd 1789 b1bd
000001a0: db63 b2bd 9e61 f6bd 26e3 f5bd 5d33 003e
000001b0: 0a0e a4bd 02a1 4b3e 2f2d ff3d 4645 c7bc
000001c0: d50a 81be 7c0a 963d c694 fc3d cf44 083e
000001d0: ba20 a73e e94b 0abe b675 a7be d036 b1bd
000001e0: 6bae 54bd bc70 413e f884 233c 9cf4 3c3e
000001f0: 5744 763e ad95 a0bb c911 843e 3cf0 74be
00000200: 28ad 983e c18d a93e 43da 403d 62ad 723e
00000210: 21e7 7dbe 08f3 953e 248e 293e 3052 a2bc
00000220: 2fd0 61be e12b 3a3d d138 a73d b1f0 b23d
00000230: 5c39 81be 14a8 803d ad4c d03d 5bd8 cf3d

bias f4 [16]
0.27465448 0.014786846 -0.015159562 -0.08635597 -0.19445232 0.12901609 0.17414469 0.047511406
0.3316976 0.015738128 0.072676115 -0.30133048 -0.17360877 -0.19727157 0.3019533 -0.15150079
00000000: 839f 8c3e 8744 723c d05f 78bc 66db b0bd
00000010: 821e 47be cb1c 043e fc52 323e 529b 423d
00000020: 45d4 a93e 3fed 803c 37d7 943d fd47 9abe
00000030: 7fc6 31be 8f01 4abe 9f99 9a3e 0623 1bbe

weight f4 [16]
1.004978 0.9750516 1.1075968 0.9532432 0.97766644 0.9223157 0.9620574 1.0150934
0.93389684 1.0783904 1.0215884 1.1278746 0.9632576 1.0772908 0.92795444 1.0762967
00000000: 1ea3 803f fb9c 793f bbc5 8d3f bf07 743f
00000010: 5948 7a3f e21c 6c3f 6549 763f 95ee 813f
00000020: dd13 6f3f b208 8a3f 69c3 823f 325e 903f
00000030: 0d98 763f aae4 893f 6c8e 6d3f 17c4 893f

bias f4 [16]
-0.014073436 0.019411908 -0.02781383 -0.022615511 0.048125446 0.025452958 -0.02982327 -0.028238919
-0.020229908 0.015647525 0.0009885601 0.04750495 -0.042973664 0.06790534 0.03329264 0.0034485261
00000000: 4594 66bc b905 9f3c d4d9 e3bc 2a44 b9bc
00000010: 301f 453d b982 d03c ee4f f4bc 4e55 e7bc
00000020: 31b9 a5bc 3d2f 803c 9392 813a 8d94 423d
00000030: 2705 30bd f411 8b3d dd5d 083d ab00 623b

running_mean f4 [16]
0.29648504 0.10979551 -0.03821178 0.014718162 -0.17343363 0.2661999 0.23749939 0.06928408
0.42620605 -0.03786118 0.082629934 -0.40805024 -0.09223444 -0.19489616 0.45079115 -0.15304752
00000000: e3cc 973e 78dc e03d f583 1cbd 7224 713c
00000010: 9698 31be 5a4b 883e 0a33 733e d0e4 8d3d
00000020: ae37 da3e 5314 1bbd e239 a93d f6eb d0be
00000030: 69e5 bcbd dc92 47be 19ce e63e 7db8 1cbe

running_var f4 [16]
0.025413735 0.04391794 0.008896689 0.046856403 0.008491189 0.07332583 0.02305307 0.007735829
0.0414496 0.017410222 0.023166869 0.045894038 0.028877698 0.017593192 0.08591727 0.004533857
00000000: 7730 d03c 4ce3 333d 6bc3 113c 80ec 3f3d
00000010: a11e 0b3c da2b 963d cbd9 bc3c d67c fd3b
00000020: 0ec7 293d e29f 8e3c 72c8 bd3c 63fb 3b3d
00000030: ec90 ec3c 991f 903c 65f5 af3d c090 943b

weight f4 [32, 16, 3, 3]
0.045677733 0.059729658 -0.01224867 0.056584876 -0.10243332 -0.067886904 -0.017577294 -0.14883648
0.034772664 0.07080607 0.015215276 -0.040025532 -0.005078651 0.051037345 -0.000106021034 -0.06843389
-0.08092518 -0.035660323 0.11178893 0.101525985 0.020978138 -0.06312543 -0.030138824 -0.12928948
0.050162833 0.08922244 0.06261976 -0.016735533 -0.031328563 -0.018061904 0.014541927 0.11438122
0.025108987 -0.120790474 -0.02671074 -0.058806363 0.0003389463 0.044487268 -0.07320014 0.024604663
0.10934721 0.061942324 -0.06649443 -0.016368829 -0.08656191 0.027312586 -0.04872596 0.040804505
0.04749711 0.03988019 -0.0030996343 -0.14004244 -0.08681931 -0.024866285 0.04799065 0.007967446
-0.022245597 -0.083167106 0.0047488506 0.061038274 -0.14573367 0.015214084 0.010771063 -0.062493637
-0.06875396 -0.039589677 0.059377547 -0.045009855 0.045508824 -0.025991645 -0.08330873 0.05065534
0.090136856 -0.06945505 0.042253613 -0.083444 0.04011673 -0.03549195 -0.029497216 -0.11831419
-0.0067501375 -0.05109932 -0.059730433 0.06982919 -0.018248953 -0.084627144 -0.06839242 -0.0724289
-0.055356693 -0.025159705 -0.07755725 -0.04183816 0.018640138 -0.008433685 -0.094334275 0.039580964
-0.010472061 -0.14462201 -0.099218056 0.013829544 -0.0928479 -0.0887884 -0.10599114 -0.122077934
-0.04903947 -0.045251966 0.03351212 -0.045006838 0.0849935 0.005454523 0.05066381 -0.14100632
-0.0026694138 0.011425871 0.00074722327 0.035423342 0.0199897 0.11324524 0.122796915 0.052860957
0.096295185 -0.045878492 -0.019990902 0.09161175 -0.0701701 0.060839232 0.053308625 0.021251166
-0.033586606 0.07105885 0.0678352 0.01954318 -0.070732184 -0.013827806 0.016007062 -0.04021239
0.03058914 -0.06969014 0.058040444 0.08726172 0.0350501 0.0063657425 0.061404463 0.04693643
0.020763401 0.15318277 -0.033445716 0.070736654 0.015076836 -0.061933015 -0.016032916 -0.006158178
-0.118520275 0.009123583 -0.018032828 0.018164784 0.04641029 0.06473796 -0.044487365 0.036028992
0.13016169 0.08654475 0.08082018 0.04931721 -0.14506306 -0.06714037 -0.043707963 0.047669515
-0.08001351 0.07105324 0.07865738 -0.021885581 0.059303746 -0.12904733 0.09469586 0.08494553
-0.03505763 0.03062603 -0.038772758 0.06352418 -0.074386835 0.005132971 -0.064598456 0.031356685
-0.008366224 -0.0345437 -0.032303777 0.03766559 -0.055662725 -0.011151556 -0.03714901 -0.06283226
-0.024306178 0.074352145 -0.014681106 0.055598997 0.030869056 0.010674404 0.05507341 0.10871644
0.009091033 -0.018672435 0.010047031 0.011885396 0.01758211 0.034574557 0.030707577 0.050058123
-0.034955997 0.043347362 -0.02316926 0.080537215 -0.023035659 -0.048814423 -0.026666105 -0.01614765
0.012081521 -0.012226826 0.057940412 0.08046461 0.024139015 0.091533735 -0.079061694 0.018581105
0.0785375 0.027652284 0.020336354 0.08314212 -0.025100289 0.0003937267 0.022501236 0.03724456
0.06525886 -0.065232426 0.11603514 0.11429063 0.06340463 0.06785744 0.036554653 -0.03008668
-0.04301288 -0.035489075 0.03074841 -0.003781636 -0.06680798 0.03769813 -0.07575825 0.053386275
0.06264017 -0.04108479 -0.099915765 -0.0634052 -0.02184762 0.06990968 -0.06298263 -0.083724886
00000000: 9318 3b3d 16a7 743d a5ae 48bc 8bc5 673d
00000010: 8fc8 d1bd 4a08 8bbd 42fe 8fbc 9768 18be
00000020: c86d 0e3d c602 913d 7e49 793c d0f1 23bd
00000030: d06a a6bb 890c 513d 9c57 deb8 1127 8cbd
00000040: 1abc a5bd 8f10 12bd 98f1 e43d dbec cf3d
00000050: 58da ab3c e847 81bd b2e5 f6bc 7664 04be
00000060: 8b77 4d3d 41ba b63d ca3e 803d f518 89bc
00000070: 6152 00bd 8ff6 93bc 4341 6e3c b340 ea3d
00000080: 5db1 cd3c ff60 f7bd 7bd0 dabc f1de 70bd
00000090: 9ab4 b139 4838 363d f4e9 95bd b88f c93c
000000a0: 6ef1 df3d 3cb7 7d3d 3b2e 88bd ec17 86bc
000000b0: 5f47 b1bd a5be df3c df94 47bd a022 273d
000000c0: 548c 423d 6959 233d 3c23 4bbb 4967 0fbe
000000d0: 53ce b1bd 61b4 cbbc d891 443d e489 023c
000000e0: 663c b6bc 8453 aabd 3f9c 9b3b 4503 7a3d
000000f0: 353b 15be 7e44 793c 1d79 303c 54f9 7fbd
00000100: e0ce 8cbd c928 22bd df35 733d 415c 38bd
00000110: 7667 3a3d 6eec d4bc c49d aabd f97b 4f3d
00000120: ac99 b83d 733e 8ebd 2012 2d3d b0e4 aabd
00000130: 7151 243d 0260 11bd 25a4 f1bc b64e f2bd
00000140: 4230 ddbb 854d 51bd e6a7 74bd 9b02 8f3d
00000150: d47e 95bc ff50 adbd 5311 8cbd 9a55 94bd
00000160: b3bd 62bd ba1b cebc 56d6 9ebd 7e5e 2bbd
00000170: 34b3 983c 702d 0abc 5432 c1bd a61f 223d
00000180: 0293 2bbc cb17 14be d632 cbbd 5095 623c
00000190: 0a27 bebd b1d6 b5bd e211 d9bd ff03 fabd
000001a0: 9cdd 48bd 205a 39bd 0144 093d 1759 38bd
000001b0: 1211 ae3d dbbb b23b db84 4f3d f663 10be
000001c0: 55f1 2ebb 9433 3b3c 4ee1 433a 1118 113d
000001d0: 70c1 a33c 1fed e73d f37c fb3d bb84 583d
000001e0: 6936 c53d 16eb 3bbd f6c3 a3bc f19e bb3d
000001f0: 57b5 8fbd 8f32 793d 255a 5a3d ed16 ae3c
00000200: 1c92 09bd 4d87 913d 2eed 8a3d 0519 a03c
00000210: 09dc 90bd 068e 62bc 3e21 833c bfb5 24bd
00000220: 1396 fa3c b4b9 8ebd d1bb 6d3d 46b6 b23d
00000230: b290 0f3d b897 d03b 3f83 7b3d 6a40 403d
00000240: 0218 aa3c f2db 1c3e 60fe 08bd 61de 903d
00000250: d504 773c 79ad 7dbd 7657 83bc 8bca c9bb
00000260: c2ba f2bd 157b 153c 95b9 93bc 50ce 943c
00000270: b718 3e3d 5695 843d 6238 36bd 2393 133d
00000280: 1b49 053e 603e b13d 0d85 a53d d800 4a3d
00000290: 698b 14be e480 89bd 1f07 33bd 1c41 433d
000002a0: 20de a3bd 5c84 913d 1f17 a13d 6449 b3bc
000002b0: 7ce8 723d fc24 04be e7ef c13d ecf7 ad3d
000002c0: 9798 0fbd 71e3 fa3c 2fd0 1ebd f718 823d
000002d0: 2058 98bd 7b32 a83b 324c 84bd de6f 003d
000002e0: 7d12 09bc b27d 0dbd f750 04bd 3c47 1a3d
000002f0: 99fe 63bd 04b5 36bc 8f29 18bd 33ae 80bd
00000300: c01d c7bc f045 983d 0689 70bc c6bb 633d
00000310: 1ae1 fc3c b2e3 2e3c a894 613d baa6 de3d
00000320: 8ef2 143c eff6 98bc 4d9c 243c f7ba 423c
00000330: 5b08 903c 0d9e 0d3d 758e fb3c bf09 4d3d
00000340: 052e 0fbd 018d 313d 76cd bdbc b2f0 a43d
00000350: 47b5 bcbc a2f1 47bd e072 dabc 1448 84bc
00000360: 92f1 453c 0653 48bc ed52 6d3d a1ca a43d
00000370: 2fbf c53c 0a76 bb3d 19eb a1bd 6737 983c
00000380: 45d8 a03d 0b87 e23c 6d98 a63c 6a46 aa3d
00000390: 1f9f cdbc 1a6d ce39 8354 b83c c08d 183d
000003a0: 70a6 853d 9498 85bd d5a3 ed3d 3511 ea3d
000003b0: 49da 813d d7f8 8a3d 55ba 153d 5778 f6bc
000003c0: 462e 30bd fe5c 11bd 17e4 fb3c 53d5 77bb
000003d0: 9fd2 88bd 5b69 1a3d 2427 9bbd 91ab 5a3d
000003e0: 7d49 803d 8648 28bd a3a0 ccbd 96da 81bd
000003f0: c8f9 b2bc ce2c 8f3d 0afd 80bd f477 abbd

bias f4 [32]
-0.03922184 -0.014561995 0.044112213 -0.05529889 0.003041291 0.035851162 0.01240743 0.018072648
-0.07057636 -0.030416425 -0.05136357 -0.02906535 0.045893785 -0.047805395 -0.07068016 0.04317126
-0.05327664 0.03798476 -0.083497435 -0.024533253 -0.0613447 0.03209963 -0.053506963 0.06706808
-0.09597276 0.026327875 0.05030291 -0.001136118 -0.052918263 0.05189725 -0.019815456 -0.020715298
00000000: 15a7 20bd 6f95 6ebc 02af 343d 1781 62bd
00000010: 6550 473b abd8 123d 8948 4b3c 170d 943c
00000020: 578a 90bd de2b f9bc 9b62 52bd 751a eebc
00000030: 1ffb 3b3d 97cf 43bd c2c0 90bd 59d4 303d
00000040: 9b38 5abd e895 1b3d b400 abbd f6f9 c8bc
00000050: 9544 7bbd e77a 033d 1e2a 5bbd fd5a 893d
00000060: 5e8d c4bd 8ead d73c 6d0a 4e3d cbe9 94ba
00000070: d2c0 58bd 3692 543d 0654 a2bc 21b3 a9bc

weight f4 [32]
1.0881124 0.9311868 0.8667498 1.0127397 1.1144052 0.9475659 0.9836906 1.0749651
0.90986854 1.0368556 0.9780176 0.9106386 1.019679 1.0739268 1.073885 0.87572277
1.0574131 1.0357717 1.0326197 1.0402305 0.90018845 0.9577412 0.9609931 1.1190653
1.041145 1.0430043 1.0639716 1.0063001 0.9674978 1.0084088 0.9981882 1.0244094
00000000: 4447 8b3f 4262 6e3f 51e3 5d3f 74a1 813f
00000010: d4a4 8e3f ae93 723f 26d3 7b3f 7598 893f
00000020: 25ed 683f afb7 843f 5d5f 7a3f 9c1f 693f
00000030: d784 823f 6f76 893f 1075 893f 5e2f 603f
00000040: 5059 873f 2b94 843f e22c 843f 4626 853f
00000050: c072 663f 872e 753f a503 763f 883d 8f3f
00000060: 3d44 853f 2a81 853f 3930 883f 71ce 803f
00000070: f0ad 773f 8a13 813f 4389 7f3f d91f 833f

bias f4 [32]
0.007249832 -0.08450054 -0.09764596 -0.056086875 0.010637492 -0.08270773 -0.052233014 -0.00080884306
-0.06762119 -0.07395013 -0.09172408 -0.027789548 -0.032458514 0.05070039 -0.00020269725 -0.1326087
0.007915922 0.006429416 -0.032139692 -0.033827472 -0.11239646 0.020349646 0.053076014 0.0138490135
-0.052055188 0.017213985 0.043855947 -0.060569044 0.0037414823 0.030760627 -0.076690756 -0.0769621
00000000: 0090 ed3b 9e0e adbd 9bfa c7bd 5abb 65bd
00000010: e048 2e3c ac62 a9bd 49f2 55bd 8a08 54ba
00000020: fa7c 8abd 2a73 97bd d6d9 bbbd e8a6 e3bc
00000030: 38f3 04bd 36ab 4f3d 218b 54b9 93ca 07be
00000040: c9b1 013c daad d23b e9a4 03bd ad8e 0abd
00000050: 1d30 e6bd 4db4 a63c 3c66 593d f9e6 623c
00000060: d237 55bd 5804 8d3c 4ba2 333d 3f17 78bd
00000070: a833 753b b6fd fb3c 0b10 9dbd 4e9e 9dbd

running_mean f4 [32]
-0.50537646 0.41355824 0.44449583 -0.5177405 -0.040929995 -0.1489036 -0.030827068 -0.06327431
0.17830664 -0.027083993 -0.33037516 0.47358122 -0.25026277 -0.27767044 -0.55128 0.30522534
-0.31919843 -0.20191784 -0.49252898 -0.23329793 0.37296775 0.07288683 0.055831846 -0.46382242
-0.010109232 -0.072105646 -0.07541589 -0.22322328 -0.09254061 -0.14268962 -0.04259917 -0.069580905
00000000: 5a60 01bf e8bd d33e f594 e33e a48a 04bf
00000010: 36a6 27bd 2f7a 18be 0c89 fcbc f695 81bd
00000020: 0496 363e 40df ddbc ef26 a9be 3d79 f23e
00000030: 7122 80be d22a 8ebe b020 0dbf 7f46 9c3e
00000040: fa6d a3be 8dc3 4ebe c22c fcbe a7e5 6ebe
00000050: a1f5 be3e b145 953d efaf 643d 227a edbe
00000060: 31a1 25bc 20ac 93bd a573 9abd a594 64be
00000070: ee85 bdbd 3a1d 12be 787c 2ebd 6f80 8ebd

running_var f4 [32]
0.63643914 0.72789997 0.8452702 0.8733379 0.66179425 0.2861585 0.3202555 1.2732177
0.8535199 0.5718552 0.6246276 0.7034526 0.60582787 0.66134894 0.7530819 0.96860236
1.3676972 0.9288163 1.0703065 0.8250963 0.54285514 0.41215143 0.55355465 1.4882334
0.80371314 0.97822946 0.7787326 0.63086843 0.96925056 0.6640133 0.5618645 0.6044665
00000000: aded 223f a757 3a3f a163 583f 1393 5f3f
00000010: 596b 293f 5e83 923e 87f8 a33e ccf8 a23f
00000020: 4880 5a3f 1a65 123f 98e7 1f3f 7815 343f
00000030: 8917 1b3f 2a4e 293f fac9 403f 53f6 773f
00000040: b410 af3f e8c6 6d3f ceff 883f 8339 533f
00000050: 8ef8 0a3f 8305 d33e c2b5 0d3f 6f7e be3f
00000060: 25c0 4d3f 3f6d 7a3f 055b 473f 9880 213f
00000070: ce20 783f c7fc 293f 5ad6 0f3f 51be 1a3f

weight f4 [32, 32, 3, 3]
-0.04510025 -0.032905627 0.10536184 0.00410486 0.057375524 0.030931905 -0.08663559 0.044894
0.064276345 0.005322527 -0.038687326 0.00617958 -0.04507217 -0.012547861 0.0385624 -0.027995717
-0.096982025 -0.046012983 0.011796254 -0.023355562 -0.022511505 -0.07813193 0.030271554 0.05176165
-0.02391357 -0.015312145 -0.0020782263 -0.10742806 -0.0004954841 -0.022603448 -0.0490202 -0.028537048
0.09548698 0.036713276 0.01829717 0.026939878 -0.05597327 -0.03282314 -0.008473974 0.019032026
-0.03611381 0.13318598 0.018868959 0.053164814 0.053830132 -0.003439819 0.021846509 0.022426205
-0.04234624 -0.057440307 -0.091198884 -0.050082266 -0.025293186 -0.062312845 -0.037446816 -0.03428498
-0.0178704 0.054965697 0.04152537 0.032947592 -0.029247455 0.069171876 -0.052387796 -0.0127967335
0.048220526 -0.009868997 0.030330393 0.016005313 0.11556109 -0.02032815 -0.0030674867 -0.009413659
-0.006830118 0.002370975 0.008086043 -0.084951974 0.008326028 -0.010343758 0.023462325 0.04306881
-0.006690661 0.005666849 0.011966019 0.08116633 -0.0005384208 -0.010940411 0.010252722 0.025299799
-0.024390139 -0.052762397 -0.045241866 -0.03244866 0.06842223 0.0027256813 -0.008647161 0.019565051
0.039131112 0.06227801 0.027193816 -0.038559526 -0.090195455 -0.04961612 -0.009922 0.031607658
0.05331069 -0.011880453 -0.059121925 -0.0345841 0.013907356 0.005500975 0.011626641 0.087542444
-0.00969437 0.04183232 -0.011224062 0.026808783 -0.016977657 -0.065387286 -0.033241834 -0.03376353
0.035841927 0.021700112 -0.060138315 0.088878565 -0.071133345 -0.024367357 -0.017285485 0.024142846
-0.040734638 -0.03526818 -0.06339531 -0.068625346 -0.031915307 -0.03305177 0.01646134 -0.086864725
-0.06648773 -0.0628923 -0.041448466 -0.010826134 -0.028346783 -0.013790532 0.04903435 4.087086e-05
-0.05270065 -0.035604768 -0.062649876 0.09247448 -0.021573728 -0.0011849145 -0.011369941 -0.09253296
0.06372273 0.041183714 -0.022165505 0.025509449 -0.08060593 -0.023980536 -0.04272621 0.024278846
-0.010585552 -0.057937965 -0.009227747 0.0014934749 0.029723471 0.07976912 -0.052550543 0.019183593
0.01242549 0.008788135 0.04187656 0.010741774 0.048164107 0.10102343 0.009925776 -0.006803157
-0.028481066 -0.043802727 0.057006113 -0.02904184 0.029466765 0.008565623 0.005898718 -0.040806044
0.085391216 -0.06826351 -0.023302129 0.0014466145 -0.030812869 -0.042631052 -0.092369266 -0.011502799
-0.027654653 0.08107713 0.047531314 -0.07101128 0.05972151 -0.051920407 -0.023927506 -0.01295426
-0.01851429 0.041651413 0.011335747 0.01649288 -0.020459054 0.030682672 -0.07658728 -0.04425363
-0.012594033 -0.009300009 0.037708227 -0.024065465 -0.018297596 -0.041155044 -0.06607168 0.07152679
-0.08054141 -0.06126295 -0.0030108613 -0.058419738 0.014813024 0.02353177 0.00206882 0.10651765
0.01277358 -0.009723362 -0.0808733 -0.060725473 -0.0055445987 0.013368536 0.09719396 -0.070813715
-0.120023854 -0.013925134 0.003599736 0.016723232 0.041229796 -0.046418898 0.007596541 -0.050047852
-0.047694605 0.027506847 0.021556776 -0.10375122 -0.004047631 -0.03307221 0.040360123 -0.016574772
-0.04806666 0.007487405 -0.008264849 0.0056750616 -0.09477563 -0.0015124895 -0.028041242 0.058129396
00000000: 0abb 38bd 0dc8 06bd f3c7 d73d 1082 863b
00000010: 9902 6b3d e864 fd3c 006e b1bd c5e2 373d
00000020: 51a3 833d 9868 ae3b 9a76 1ebd 137e ca3b
00000030: 999d 38bd 8b95 4dbc 9bf3 1d3d 4657 e5bc
00000040: 839e c6bd 1c78 3cbd 1345 413c 2a54 bfbc
00000050: 0c6a b8bc a203 a0bd 0dfc f73c 0604 543d
00000060: 64e6 c3bc cbdf 7abc da32 08bb 3e03 dcbd
00000070: 60e3 01ba de2a b9bc 68c9 48bd 87c6 e9bc
00000080: ae8e c33d a960 163d f2e3 953c 05b1 dc3c
00000090: 3a44 65bd 8f71 06bd 6cd6 0abc 0de9 9b3c
000000a0: 13ec 13bd e861 083e 1393 9a3c 59c3 593d
000000b0: fc7c 5c3d 966e 61bb 73f7 b23c 29b7 b73c
000000c0: 4073 2dbd 8746 6bbd 7bc6 babd 1023 4dbd
000000d0: a833 cfbc c13b 7fbd d561 19bd 686e 0cbd
000000e0: f264 92bc b623 613d 8216 2a3d 0ef4 063d
000000f0: 5c98 efbc fca9 8d3d 9694 56bd 64a9 51bc
00000100: e382 453d 93b1 21bc 7277 f83c 931d 833c
00000110: 4bab ec3d 3887 a6bc e307 49bb bf3b 1abc
00000120: 2fcf dfbb 5c62 1b3b 537b 043c 4dfb adbd
00000130: e469 083c de78 29bc 1034 c03c ec68 303d
00000140: 553d dbbb fab0 b93b 1f0d 443c 883a a63d
00000150: cf24 0dba 693f 33bc 08fb 273c 8641 cf3c
00000160: d4cd c7bc 621d 58bd 894f 39bd e3e8 04bd
00000170: f420 8c3d 58a1 323b d2ac 0dbc e346 a03c
00000180: f247 203d 3a17 7f3d 91c5 de3c 98f0 1dbd
00000190: 65b8 b8bd 463a 4bbd e28f 22bc 0877 013d
000001a0: 4f5c 5a3d 3ba6 42bc d529 72bd 0fa8 0dbd
000001b0: aedb 633c 8641 b43b ab7d 3e3c 7449 b33d
000001c0: 23d5 1ebc 5e58 2b3d 21e5 37bc 189e db3c
000001d0: ba14 8bbc c5e9 85bd 9728 08bd a14b 0abd
000001e0: fcce 123d 6fc4 b13c 9853 76bd f705 b63d
000001f0: 5cae 91bd 0d9e c7bc 4a9a 8dbc 38c7 c53c
00000200: 5dd9 26bd 5e75 10bd 66d5 81bd 728b 8cbd
00000210: a0b9 02bd 4b61 07bd efd9 863c 22e6 b1bd
00000220: b82a 88bd aecd 80bd dec5 29bd 1960 31bc
00000230: 8337 e8bc aff1 61bc 3ed8 483d c06c 2b38
00000240: a3dc 57bd 4ed6 11bd 944e 80bd 4363 bd3d
00000250: 63bb b0bc 224f 9bba fd48 3abc ec81 bdbd
00000260: 1081 823d 41b0 283d 6f94 b5bc 31f9 d03c
00000270: b914 a5bd d472 c4bc ae01 2fbd 6ee4 c63c
00000280: 066f 2dbc 5c50 6dbd fa2f 17bc b4c0 c33a
00000290: a37e f33c fe5d a33d 3d3f 57bd e926 9d3c
000002a0: 4894 4b3c 1cfc 0f3c c186 2b3d 44fe 2f3c
000002b0: ba47 453d 5fe5 ce3d b99f 223c 04ed debb
000002c0: 2051 e9bc 7d6a 33bd 3e7f 693d 27e9 edbc
000002d0: 4964 f13c d456 0c3c 084a c13b 3d24 27bd
000002e0: 97e1 ae3d bdcd 8bbd 1be4 bebc 549c bd3a
000002f0: 456b fcbc e69d 2ebd 192c bdbd 3c76 3cbc
00000300: 038c e2bc c40b a63d 32b0 423d 5d6e 91bd
00000310: 8b9e 743d 7eaa 54bd 9e03 c4bc 1b3e 54bc
00000320: 48ab 97bc ac9a 2a3d 92b9 393c 141c 873c
00000330: bf99 a7bc 3a5a fb3c cbd9 9cbd 4b43 35bd
00000340: 3457 4ebc 115f 18bc f173 1a3d f024 c5bc
00000350: d7e4 95bc 3192 28bd 9750 87bd a37c 923d
00000360: e5f2 a4bd dcee 7abd df51 45bb 8949 6fbd
00000370: 53b2 723c b3c5 c03c 0a95 073b ed25 da3d
00000380: 4748 513c bc4e 1fbc e7a0 a5bd 46bb 78bd
00000390: 77af b5bb b407 5b3c a00d c73d c806 91bd
000003a0: 11cf f5bd 3f26 64bc 8ce9 6b3b 29ff 883c
000003b0: 93e0 283d be21 3ebd 68ec f83b fafe 4cbd
000003c0: 6b5b 43bd 0a56 e13c d697 b03c 857b d4bd
000003d0: fda1 84bb ba76 07bd a850 253d d1c7 87bc
000003e0: 8ce1 44bd e858 f53b 4a69 07bc def5 b93b
000003f0: ba19 c2bd ba3e c6ba bfb6 e5bc 1719 6e3d

bias f4 [32]
0.020250013 0.04166302 0.0027999121 -0.04851086 0.077407286 0.039737757 0.019186582 -0.035388898
0.0020205022 -0.021200914 0.008536482 0.021295365 -0.027071236 -0.020565204 0.049572192 -0.040804062
-0.01866027 0.031856555 -0.06512568 0.0021404047 0.052023035 -0.051414732 0.005520636 -0.026636735
-0.035299066 0.02505763 -0.062242843 -0.026125195 -0.0046816273 -0.046518013 0.0073032165 -0.046815775
00000000: 5be3 a53c d8a6 2a3d bb7e 373b 53b3 46bd
00000010: b687 9e3d 0fc4 223d 2e2d 9d3c f3f3 10bd
00000020: 676a 043b 8aad adbc 9adc 0b3c 9e73 ae3c
00000030: 7fc4 ddbc 5c78 a8bc 360c 4b3d 2922 27bd
00000040: 6cdd 98bc 057c 023d 9d60 85bd 0846 0c3b
00000050: 1b16 553d 4198 52bd 74e6 b43b 4835 dabc
00000060: c195 10bd a945 cd3c 5af2 7ebd 8104 d6bc
00000070: 5668 99bb ac89 3ebd d24f ef3b e6c1 3fbd

weight f4 [32]
0.949641 0.9970889 1.0044924 1.051172 1.0220453 0.91234666 0.97507435 0.98406637
0.9676722 1.0044054 0.9649875 1.0002441 0.93993276 0.99160194 1.0117681 1.0203521
0.9977003 1.0233685 1.0465517 1.0357745 0.97876334 1.0580037 1.0291464 1.0618674
0.9583962 1.017585 0.99223334 0.9874435 0.99935645 0.99628127 1.0141747 0.9667764
00000000: ac1b 733f 3841 7f3f 3593 803f ce8c 863f
00000010: 61d2 823f 8d8f 693f 799e 793f c6eb 7b3f
00000020: 5eb9 773f 5b90 803f 6c09 773f 0008 803f
00000030: 6f9f 703f a0d9 7d3f 9e81 813f e69a 823f
00000040: 4969 7f3f bdfd 823f 68f5 853f 4294 843f
00000050: 3c90 7a3f aa6c 873f 12bb 833f 45eb 873f
00000060: 7459 753f 3a40 823f 0103 7e3f 19c9 7c3f
00000070: d3d5 7f3f 4a0c 7f3f 7ad0 813f a87e 773f

bias f4 [32]
-0.053528693 -0.022671096 0.0013632356 0.005673951 -0.039225142 -0.059136827 -0.026071569 -0.07631704
-0.02432076 -0.06349945 -0.03462887 0.017925922 -0.063296035 -0.037146322 -0.07667559 -0.061080743
0.012400362 -0.0042234487 -0.049319185 -0.013170056 -0.094931774 -0.05488053 -0.01728879 0.035658006
-0.015988093 -0.04020459 0.011590464 -0.001118761 -0.023556149 0.07227741 -0.00045300965 -0.03666077
00000000: e740 5bbd bcb8 b9bc 99ae b23a 8dec b93b
00000010: 8baa 20bd 7539 72bd 0b94 d5bc 1c4c 9cbd
00000020: 553c c7bc 000c 82bd 01d7 0dbd 62d9 923c
00000030: 5aa1 81bd be26 18bd 1708 9dbd cd2f 7abd
00000040: e32a 4b3c db64 8abb ea02 4abd 38c7 57bc
00000050: 976b c2bd 68ca 60bd 38a1 8dbc 210e 123d
00000060: 76f9 82bc 91ad 24bd eee5 3d3c 64a3 92ba
00000070: d3f8 c0bc 2e06 943d ed81 edb9 9b29 16bd

running_mean f4 [32]
-0.48924342 0.76839596 -0.1834558 0.03086637 0.19450012 -0.4290449 -0.10689913 -0.4408469
-0.29363075 -0.47482124 -0.43157995 0.48663497 -0.60489625 -0.70178926 -0.29390103 -0.33137608
-0.2552675 -0.18843324 -0.47552043 -0.106018424 -0.82555956 -0.28434846 -0.27195793 0.003921495
-0.18424532 -0.07422585 -0.39970133 -0.1495012 -0.4396104 -0.56901747 -0.48152843 0.024004914
00000000: 1d7e fabe 99b5 443f d6db 3bbe 78db fc3c
00000010: 0a2b 473e c6ab dbbe eeed dabd afb6 e1be
00000020: c556 96be c51b f3be 0cf8 dcbe 3828 f93e
00000030: 7bda 1abf 76a8 33bf 327a 96be 20aa a9be
00000040: 6cb2 82be a5f4 40be 6a77 f3be 3020 d9bd
00000050: df57 53bf 1f96 91be 123e 8bbe e27f 803b
00000060: ceaa 3cbe b903 98bd a7a5 ccbe d816 19be
00000070: 9d14 e1be 21ab 11bf e58a f6be f4a5 c43c

running_var f4 [32]
0.52133584 0.5471816 0.4960775 0.378453 0.4415382 0.48008415 0.7117645 0.46480557
0.35851103 0.35907078 0.3603611 0.5145242 1.0716976 0.3360796 0.50065356 0.6584928
0.63364327 0.4251103 0.575031 0.4686206 0.37025595 0.39372933 0.64093524 0.5903581
0.37534738 0.5501105 0.49738395 0.5953802 0.7795083 0.39833274 0.4575223 0.79703707
00000000: 4476 053f 1814 0c3f dffd fd3e 97c4 c13e
00000010: 4c11 e23e 97cd f53e 3336 363f fffa ed3e
00000020: c28e b73e 20d8 b73e 4081 b83e dcb7 033f
00000030: 632d 893f a012 ac3e d52a 003f fc92 283f
00000040: 7236 223f 0fa8 d93e 3b35 133f 0aef ef3e
00000050: 3092 bd3e e496 c93e 5514 243f b521 173f
00000060: 882d c03e 0bd4 0c3f 1ca9 fe3e d66a 183f
00000070: db8d 473f 45f2 cb3e 5d40 ea3e 9f0a 4c3f

weight f4 [64, 32, 2, 2]
0.02522217 -0.054650284 0.05286219 0.013173982 0.017424753 -0.009430208 0.05766813 -0.13216212
-0.098517865 0.1237583 -0.0004333288 -0.12639461 0.055337556 0.013198558 0.030849399 0.13768317
-0.020081865 0.042137973 0.029219013 -0.06749682 0.029811671 -0.11316069 0.012531657 -0.047347736
-0.041204255 -0.09016889 -0.0091382945 0.020558303 0.01851015 -0.049991988 -0.075553685 -0.079684414
-0.045045555 -0.10540209 0.028072337 -0.08496435 -0.12394571 -0.07624833 0.002564702 -0.033229582
0.004475355 0.07674323 -0.034887046 0.08215827 -0.093524486 0.066010855 0.027486296 0.0021465754
-0.105752304 0.083577365 0.022608379 0.07728237 -0.012181194 -0.056626372 0.13310637 -0.05992436
-0.074687116 -0.035979003 -0.028699521 0.020023214 -0.014589081 0.05580456 0.007047224 0.16048001
-0.035180442 -0.08620715 0.007220696 -0.121920474 0.074750334 -0.10233338 0.047145616 0.0012526391
-0.07570176 0.021741223 0.05405205 0.047573216 -0.19081509 -0.010318223 0.07428945 -0.079885386
-0.016722603 -0.0035044167 0.025825461 -0.012657895 -0.014682415 -0.02417691 -0.020608218 0.060418066
-0.09233523 -0.020485613 -0.060308337 -0.036180634 0.070173174 -0.108369745 0.03409589 -0.021397468
-0.15228309 0.17709507 0.075343184 -0.11186885 -0.044853263 0.01913231 -0.021035178 0.06781081
-0.010223945 0.01883538 0.019163705 0.0057914644 0.021800917 0.0935336 -0.001544444 -9.52354e-05
0.07765593 -0.10544174 -0.057740834 0.03942323 -0.039765976 -0.049317326 -0.028943572 0.033728518
0.021821545 0.04118538 -0.009097521 0.10309683 -0.02225581 0.10361537 0.04746576 0.040615756
-0.05555112 0.07325762 0.042454638 -0.10991198 -0.01985208 -0.087428235 0.049485285 0.02142768
-0.05763734 -0.002808936 0.025476558 0.009401422 0.029475948 0.035767455 -0.06524862 0.11738395
-0.025529107 -0.03622828 -0.088459425 0.03557125 -0.00259765 -0.04278895 0.070397735 0.08966102
-0.0443533 0.0037053684 -0.056011252 -0.050412916 0.027906153 -0.0642603 -0.01299479 0.030437864
0.041882697 -0.08500441 -0.084656164 -0.031685848 -0.022293493 0.008492109 0.079848684 0.0039114086
-0.02120531 -0.0082671195 0.084427744 0.087130874 -0.0050386908 0.13512124 -0.019157453 -0.0959469
0.015266691 -0.04231764 -0.04493357 -0.06891406 0.06664388 -0.014236091 -0.11569887 0.005780519
-0.07118723 -0.013600632 0.013593598 0.02772669 -0.00605406 -0.061892845 0.05631165 -0.04751075
0.046550795 -0.05005701 -0.03139402 0.010548615 -0.016475318 -0.054295983 -0.007903128 -0.026652459
0.05573689 -0.0030571807 -0.022186315 -0.068416245 0.039942548 -0.0526007 -0.03392673 0.073791206
-0.02734429 -0.05306926 -0.0674742 -0.050654087 -0.08653102 0.11242774 0.060363173 0.10869293
0.009058443 0.03102411 -0.0008084676 -0.009229107 0.017337998 -0.16906856 -0.12695558 0.07371276
-0.008806395 0.09655059 -0.07077222 -0.02060975 0.09561695 -0.0308643 -0.094539754 -0.039490204
-0.061288048 0.03156545 -0.067707725 0.06531751 -0.051207975 -0.08876533 -0.040922243 0.031151863
0.07377918 -0.050792325 0.0042447187 -0.012940352 0.07706073 -0.02773794 0.09914655 -0.09390573
-0.08805426 0.025227329 0.014641121 0.111755684 0.05625379 -0.030682996 -0.002141009 -0.02207547
00000000: b99e ce3c fad8 5fbd 0686 583d afd7 573c
00000010: 5bbe 8e3c 2981 1abc 6b35 6c3d 8255 07be
00000020: bcc3 c9bd fe74 fd3d 6830 e3b9 976d 01be
00000030: a2a9 623d c43e 583c e1b7 fc3c d1fc 0c3e
00000040: b982 a4bc de98 2c3d b65c ef3c c63b 8abd
00000050: 9b37 f43c cbc0 e7bd 9451 4d3c b3ef 41bd
00000060: cbc5 28bd 78aa b8bd c9b8 15bc e369 a83c
00000070: 99a2 973c 66c4 4cbd e4bb 9abd 9531 a3bd
00000080: b081 38bd 0ddd d7bd f5f7 e53c ca01 aebd
00000090: 40d7 fdbd 1628 9cbd 8f14 283b be1b 08bd
000000a0: 00a6 923b 8e2b 9d3d b8e5 0ebd 9842 a83d
000000b0: c489 bfbd b330 873d f12a e13c 8fad 0c3b
000000c0: aa94 d8bd 9c2a ab3d 3535 b93c 3846 9e3d
000000d0: a193 47bc 0ef1 67bd 094d 083e 3f73 75bd
000000e0: 8ff5 98bd b85e 13bd 421b ebbc b907 a43c
000000f0: 0a07 6fbc 5393 643d 66ec e63b df54 243e
00000100: 5e19 10bd 608d b0bd 979b ec3b 71b1 f9bd
00000110: b416 993d 2a94 d1bd c31b 413d 982f a43a
00000120: 8609 9bbd a61a b23c af65 5d3d 22dc 423d
00000130: 0865 43be c40d 29bc 1125 983d f39a a3bd
00000140: d7fd 88bc 5baa 65bb eb8f d33c 0f63 4fbc
00000150: 838e 70bc a80e c6bc 91d2 a8bc ef78 773d
00000160: 411a bdbd 72d1 a7bc e005 77bd 2532 14bd
00000170: f4b6 8f3d f5f0 ddbd 22a8 0b3d be49 afbc
00000180: 19f0 1bbe 6958 353e 874d 9a3d 7f1b e5bd
00000190: 0eb8 37bd 5dbb 9c3c f751 acbc 65e0 8a3d
000001a0: 5582 27bc a84c 9a3c 34fd 9c3c 53c6 bd3b
000001b0: d697 b23c 8b8e bf3d f16e caba 1eb9 c7b8
000001c0: 120a 9f3d d7f1 d7bd a781 6cbd 417a 213d
000001d0: a6e1 22bd f700 4abd 121b edbc ea26 0a3d
000001e0: 19c3 b23c 00b2 283d c50d 15bc 6e24 d33d
000001f0: d151 b6bc 4c34 d43d 756b 423d b55c 263d
00000200: 9289 63bd 1708 963d eae4 2d3d 8819 e1bd
00000210: d4a0 a2bc 930d b3bd 15b1 4a3d 1a89 af3c
00000220: 2215 6cbd 2016 38bb 37b4 d03c 6c08 1a3c
00000230: 8b77 f13c e580 123d 12a1 85bd ff66 f03d
00000240: 6b22 d1bc 1b64 14bd 372a b5bd 29b3 113d
00000250: 563d 2abb 7743 2fbd b02c 903d 32a0 b73d
00000260: ceab 35bd c4d5 723b 0e6c 65bd c67d 4ebd
00000270: 729b e43c e79a 83bd 1ae8 54bc d458 f93c
00000280: 318d 2b3d cb16 aebd 3660 adbd 05c9 01bd
00000290: d8a0 b6bc 7d22 0b3c b587 a33d 462b 803b
000002a0: c2b6 adbc d072 07bc 74e8 ac3d ac71 b23d
000002b0: 9a1b a5bb 395d 0a3e 17f0 9cbc cf7f c4bd
000002c0: 2521 7a3c 4355 2dbd 430c 38bd d122 8dbd
000002d0: 967c 883d 7e3e 69bc 87f3 ecbd 826a bd3b
000002e0: 9cca 91bd 2fd5 5ebc afb7 5e3c 1523 e33c
000002f0: 2361 c6bb 5a83 7dbd 0ba7 663d a29a 42bd
00000300: 0cac 3e3d 9408 4dbd 0497 00bd 19d4 2c3c
00000310: 3ff7 86bc 7765 5ebd 1f7c 01bc 4256 dabc
00000320: 5d4c 643d fb5a 48bb 13c0 b5bc d11d 8cbd
00000330: cc9a 233d d573 57bd c1f6 0abd d81f 973d
00000340: 2201 e0bc 275f 59bd ea2f 8abd a97a 4fbd
00000350: 2d37 b1bd 8440 e63d 603f 773d 669a de3d
00000360: dd69 143c 4626 fe3c 58ef 53ba ae35 17bc
00000370: 6b08 8e3c 4f20 2dbe a500 02be b7f6 963d
00000380: b348 10bc 51bc c53d 07f1 90bd c7d5 a8bc
00000390: d2d2 c33d 21d7 fcbc 0f9e c1bd 7bc0 21bd
000003a0: 2d09 7bbd c64a 013d 59aa 8abd 30c5 853d
000003b0: 74bf 51bd 99ca b5bd 159e 27bd 3132 ff3c
000003c0: 8a19 973d 9d0b 50bd 4817 8b3b c503 54bc
000003d0: 04d2 9d3d ad3a e3bc 590d cb3d a651 c0bd
000003e0: cb55 b4bd 8ba9 ce3c 50e1 6f3c 2ae0 e43d
000003f0: 606a 663d e85a fbbc 2c50 0cbb 9ed7 b4bc

bias f4 [64]
0.05851971 -0.071543716 -0.011025783 0.0114376955 0.07707305 -0.024785591 0.0067473496 -0.018539509
-0.08965481 -0.06374456 -0.011112057 0.024712155 -0.030604893 0.06396112 0.02945594 -0.00862615
-0.084240794 0.06992639 0.0103026135 -0.025037771 -0.059636794 0.08939932 -0.07698966 0.053282246
-0.0762551 0.070910424 -0.07821115 0.07969352 0.03262227 -0.049555115 0.0801027 0.072143435
-0.0385424 -0.026538163 -0.05590822 -0.053528152 0.08218578 -0.078025244 0.0791708 0.072383486
-0.039300263 0.07006383 0.0031776272 0.0026314973 0.08205291 -0.066265635 -0.0011150448 0.06509443
0.063816875 0.069508314 0.021660592 0.0826056 -0.058381557 0.005820411 -0.054775976 -0.011068388
0.027726969 -0.09447742 0.056731697 -0.0615097 -0.077782616 -0.051558785 0.02618783 -0.07888995
00000000: 5db2 6f3d 8385 92bd 7ca5 34bc 2c65 3b3c
00000010: 7ad8 9d3d 270b cbbc df18 dd3b 2be0 97bc
00000020: f19c b7bd 828c 82bd 580f 36bc 2571 ca3c
00000030: 1db7 fabc 0cfe 823d 954d f13c b254 0dbc
00000040: 7086 acbd 9135 8f3d 4bcc 283c 031c cdbc
00000050: b645 74bd fe16 b73d c1ac 9dbd 7c3e 5a3d
00000060: a22b 9cbd 7c39 913d 2b2d a0bd 5b36 a33d
00000070: ee9e 053d 4efa 4abd e20c a43d f0bf 933d
00000080: a3de 1dbd 9066 d9bc 0500 65bd 5640 5bbd
00000090: 0551 a83d b3cb 9fbd 4d24 a23d cb3d 943d
000000a0: 50f9 20bd a07d 8f3d bd3f 503b 3375 2c3b
000000b0: 5b0b a83d 47b6 87bd b226 92ba 3b50 853d
000000c0: 6cb2 823d 605a 8e3d 8e71 b13c 202d a93d
000000d0: 8021 6fbd 25b9 be3b c65c 60bd 2f58 35bc
000000e0: ab23 e33c 617d c1bd 7f5f 683d 98f1 7bbd
000000f0: 7e4c 9fbd 4e2f 53bd dc87 d63c 0e91 a1bd

weight f4 [64]
1.1969873 1.1416259 1.175423 1.1631757 1.1305321 1.1418765 1.193825 1.1722511
1.2009162 1.1880912 1.1647724 1.1882501 1.1186485 1.1185535 1.1456057 1.101653
1.1999804 1.1536745 1.1136279 1.1786662 1.1996713 1.1616158 1.1445373 1.1458682
1.1354979 1.1855018 1.212174 1.1221926 1.1607244 1.1791346 1.1690708 1.1325065
1.1294456 1.162504 1.1456611 1.1605927 1.1714569 1.1397573 1.1060184 1.1538479
1.1685873 1.1182705 1.202931 1.1659042 1.1178814 1.1462965 1.1833142 1.1297585
1.1340775 1.2464035 1.1210254 1.1586099 1.1661055 1.1146855 1.1848865 1.1530312
1.1197479 1.1724393 1.1292672 1.1523699 1.1870847 1.1714329 1.159378 1.1322079
00000000: e136 993f cc20 923f 4374 963f f1e2 943f
00000010: 47b5 903f 0229 923f 42cf 983f 530c 963f
00000020: 9fb7 993f 5f13 983f 4317 953f 9418 983f
00000030: e02f 8f3f c32c 8f3f 35a3 923f f702 8d3f
00000040: f598 993f 9bab 933f 5c8b 8e3f 89de 963f
00000050: d48e 993f d4af 943f 3380 923f cfab 923f
00000060: ff57 913f 86be 973f 8528 9b3f 02a4 8f3f
00000070: 9e92 943f e2ed 963f 1da4 953f f9f5 903f
00000080: ac91 903f eecc 943f 06a5 923f 4d8e 943f
00000090: 4df2 953f 91e3 913f 0392 8d3f 4ab1 933f
000000a0: 4594 953f 7d23 8f3f a5f9 993f 593c 953f
000000b0: bd16 8f3f d8b9 923f d776 973f ed9b 903f
000000c0: 7429 913f 268a 9f3f c37d 8f3f 544d 943f
000000d0: f242 953f 04ae 8e3f 5caa 973f 8796 933f
000000e0: e653 8f3f 7e12 963f d48b 903f db80 933f
000000f0: 64f2 973f 83f1 953f 8066 943f 30ec 903f

bias f4 [64]
0.056708287 0.09593202 0.081115164 0.12328007 0.088215254 0.06935952 0.13182858 0.07549965
0.10317252 0.11629743 0.0664649 0.1303362 0.040563595 0.09035769 0.112548456 0.054895163
0.058544002 0.053910736 0.06569565 0.12637703 0.0924595 0.058910694 0.057203863 0.06954772
0.06211807 0.124303415 0.10817834 0.0909425 0.07126649 0.11489155 0.11071827 0.08172523
0.03941415 0.06847773 0.11522049 0.085243665 0.089879744 0.054906398 0.033865664 0.08868197
0.09336268 0.083795205 0.07122484 0.071474425 0.07519472 0.06382702 0.074323066 0.08648007
0.062110346 0.10762663 0.06881322 0.08449364 0.061993435 0.0704616 0.10746671 0.07324327
0.012510914 0.062524036 0.06698111 0.0654239 0.064692214 0.07088114 0.09823446 0.057329502
00000000: f346 683d 0278 c43d b51f a63d 437a fc3d
00000010: 33aa b43d 5d0c 8e3d 12fe 063e 8f9f 9a3d
00000020: 1d4c d33d 592d ee3d c01e 883d da76 053e
00000030: 0326 263d 740d b93d ce7f e63d c0d9 603d
00000040: d6cb 6f3d 81d1 5c3d 718b 863d fb68 013e
00000050: 685b bd3d 574c 713d 994e 6a3d 096f 8e3d
00000060: 846f 7e3d ca92 fe3d 9b8c dd3d 1040 ba3d
00000070: 2af4 913d 434c eb3d 43c0 e23d 8f5f a73d
00000080: bb70 213d 0d3e 8c3d b8f8 eb3d 3b94 ae3d
00000090: df12 b83d 88e5 603d b9b6 0a3d e59e b53d
000000a0: ef34 bf3d d29c ab3d 54de 913d 2f61 923d
000000b0: b0ff 993d beb7 823d b136 983d 771c b13d
000000c0: 6b67 7e3d 5a6b dc3d f2ed 8c3d 000b ad3d
000000d0: d4ec 7d3d 2c4e 903d 8217 dc3d 9100 963d
000000e0: 94fa 4c3c 9a0c 803d 642d 893d f7fc 853d
000000f0: 5a7d 843d 222a 913d 262f c93d 57d2 6a3d

running_mean f4 [64]
-0.15208098 -0.4009793 -0.43461713 -0.35077095 0.39965826 -0.42252108 -0.40674138 0.12744887
-0.55104977 -0.09623712 0.120611556 0.39270255 -0.28443992 -0.104009636 -0.09572874 -0.2754297
-0.045000754 0.031540386 -0.33762866 0.13530733 -0.14398886 0.11481003 0.07085808 -0.18909338
-0.03627485 -0.04562187 -0.30857444 0.1388047 0.024152704 -0.05315841 0.21435529 0.16141129
-0.12897716 -0.087793574 -0.42815346 0.05831172 0.31898564 -0.4223338 0.14608878 0.23178291
-0.27356064 0.25072485 -0.713991 0.044790443 -0.22868289 -0.57262194 -0.09267345 0.44709492
-0.020815194 -0.35887474 0.43198416 -0.1853433 0.04445141 -0.2658062 0.07103212 0.13743044
0.080127336 -0.043926805 -0.1216162 -0.55348176 0.24810864 -0.33548686 0.22448456 -0.17588513
00000000: 1ebb 1bbe 294d cdbe 2386 debe 4098 b3be
00000010: 02a0 cc3e af54 d8be 6840 d0be f581 023e
00000020: 9911 0dbf f817 c5bd 3103 f73d 4f10 c93e
00000030: 1ca2 91be 0103 d5bd 6e0d c4bd 1f05 8dbe
00000040: b652 38bd 7e30 013d aadd acbe 018e 0a3e
00000050: d171 13be 8521 eb3d 0b1e 913d b2a1 41be
00000060: f094 14bd ffdd 3abd 78fd 9dbe d222 0e3e
00000070: e4db c53c a2bc 59bd f47f 5b3e 0049 253e
00000080: 9712 04be 1ecd b3bd ee36 dbbe 45d8 6e3d
00000090: 1652 a33e 233c d8be 4c98 153e 8058 6d3e
000000a0: 2410 8cbe 025f 803e 1dc8 36bf 2f76 373d
000000b0: d92b 6abe 5a97 12bf 94cb bdbd a0e9 e43e
000000c0: a084 aabc 6ebe b7be 072d dd3e a2ca 3dbe
000000d0: af12 363d c017 88be 4a79 913d 91ba 0c3e
000000e0: cd19 a43d 98ec 33bd ea11 f9bd fbb0 0dbf
000000f0: 3110 7e3e efc4 abbe 48df 653e 3b1b 34be

running_var f4 [64]
0.19776735 0.15394998 0.123978704 0.19261073 0.13775806 0.15474214 0.16989595 0.17091568
0.14695875 0.18210761 0.13959517 0.14299834 0.24444659 0.20665611 0.23696078 0.1622139
0.16682737 0.108215116 0.11349088 0.14116836 0.17449236 0.15548109 0.15249619 0.14769782
0.151682 0.13266303 0.10806192 0.22500774 0.12210068 0.20477892 0.14212663 0.13660279
0.10752249 0.12001456 0.12260104 0.15600091 0.16223326 0.12089973 0.13933465 0.15020914
0.187059 0.121664815 0.13791588 0.15619026 0.16621204 0.1978505 0.15246864 0.1355056
0.15102595 0.160048 0.1284217 0.12784539 0.123279 0.23828456 0.16669454 0.11898007
0.20149592 0.1760998 0.14553908 0.09382708 0.1284684 0.12160176 0.14579192 0.1354806
00000000: 8683 4a3e 10a5 1d3e 8ce8 fd3d bf3b 453e
00000010: 7310 0d3e b974 1e3e 34f9 2d3e 8504 2f3e
00000020: 5b7c 163e 6b7a 3a3e 09f2 0e3e 286e 123e
00000030: 3550 7a3e a99d 533e d9a5 723e 671b 263e
00000040: cbd4 2a3e e39f dd3d e86d e83d 708e 103e
00000050: 20ae 323e 6f36 1f3e f627 1c3e 193e 173e
00000060: 8752 1b3e d1d8 073e 914f dd3d 6e68 663e
00000070: ec0f fa3d 91b1 513e a589 113e 9ae1 0b3e
00000080: c034 dc3d 32ca f53d 4116 fb3d b4be 1f3e
00000090: 7a20 263e 479a f73d bead 0e3e 6dd0 193e
000000a0: 658c 3f3e 672b f93d d239 0d3e 57f0 1f3e
000000b0: 7d33 2a3e 5299 4a3e bd20 1c3e fbc1 0a3e
000000c0: 8ca6 1a3e 9fe3 233e fa80 033e e7e9 023e
000000d0: b379 fc3d de00 743e f9b1 2a3e d3ab f33d
000000e0: f254 4e3e 8253 343e 3208 153e 6a28 c03d
000000f0: 388d 033e 580a f93d 7a4a 153e 6dbb 0a3e

weight f4 [100, 256]
-0.024504753 -0.066681534 -0.0776442 -0.028184788 -0.098660566 0.10851936 -0.05388767 -0.012130621
0.086968906 0.07286431 0.02253442 0.063195005 -0.022217564 0.039732046 0.023121765 0.09507311
0.0007529932 -0.11041958 0.020655695 0.018908355 -0.056365564 0.11235142 0.02816449 -0.008216622
-0.064765304 0.0057659936 0.074626885 -0.06135684 0.044013575 0.11116296 -0.004087923 0.028209683
-0.05012153 -0.037300736 -0.057510644 0.108825274 -0.007521983 -0.11655894 -0.07867498 0.04078035
0.0111660445 -0.053761084 0.17644212 -0.017951107 -0.020516202 -0.02150767 -0.030954534 0.0069220606
0.049623072 0.03413181 -0.043866456 0.12490162 -0.0009172007 0.072119616 -0.030393554 0.05075513
-0.02885081 -0.10844108 -0.044569988 0.055845767 -0.06312703 -0.03468609 0.071539596 0.016573777
0.03135662 0.047678396 -0.027430419 -0.056763794 -0.01552012 0.07337702 0.03805792 0.07011148
-0.015724264 -0.09466908 -0.028951328 -0.06651132 -0.022845097 -0.13439476 0.103182316 0.05360255
0.017535696 -0.10745371 0.035500545 -0.020647831 -0.032623503 0.07200814 0.028419582 0.027643545
-0.025768165 -0.013140717 -0.010272147 0.09050369 0.06461401 0.03987816 0.0053355163 0.07533374
-0.08447477 -0.11640593 -0.0033336228 0.059891123 -0.05675141 0.026964668 0.09462736 -0.0029400212
0.05188907 0.0037037155 -0.14715986 0.05704676 0.052699942 0.10164804 0.07018939 0.014608857
-0.04855835 0.12928829 -0.08999685 0.054875154 0.041641735 -0.12873504 -0.051115945 -0.020059299
-0.03529421 -0.10052126 -0.03859702 0.07750821 -0.09643191 0.053655248 -0.13009766 0.021631783
-0.03445357 -0.027109914 -0.10359361 0.021043627 -0.019743491 0.0109194135 0.0077185435 -0.0015023605
0.031058667 0.10864045 0.068064444 0.022425262 -0.025933987 -0.03605856 -0.012961523 0.009858165
0.03455536 -0.0017367809 0.091381416 0.007820348 -0.045349464 0.038603272 -0.048644934 -0.08844854
0.03049632 -0.044534087 0.043111313 0.00024118595 -0.06544294 -0.045504164 -0.021568049 0.125847
0.020155156 -0.046069454 0.06910132 0.024637481 0.027001679 0.046053782 0.009009115 -0.027528744
0.050973363 -0.15965524 0.05523667 -0.020887239 -0.046444606 -0.03397854 0.013844661 0.1064245
-0.043274753 -0.020481706 -0.08181527 0.042253647 -0.059642904 0.09343183 0.009406984 -0.00080988137
-0.057583947 -0.05273363 0.049588032 0.10819849 -0.025759649 0.022331005 0.08040892 0.1205004
-0.07835866 0.07194611 -0.049146757 0.03771322 0.051513832 -0.021118248 -0.055945914 -0.046375807
-0.01169971 -0.034398753 0.08016809 0.005594936 0.08225658 0.081046894 0.08532337 -0.041103028
-0.03499046 0.1420216 -0.0824608 0.08037743 -0.008823685 0.06598571 0.064456426 0.06908495
0.005871907 -0.015031968 0.10016819 0.0018445095 0.112175524 -0.10302787 0.06276487 0.060794428
0.04256231 -0.007910178 -0.050273698 -0.06956187 0.071647115 -0.011663085 -0.016307142 -0.09859813
0.00818911 0.0110553345 0.050113354 0.052280556 0.10645999 0.018023258 0.016196791 0.07554016
-0.008943742 -0.12752882 -0.059816856 0.03719355 -0.010424199 -0.113448806 -0.044576664 -0.065667
-0.0090033095 0.04878209 0.057107724 -0.09085209 -0.020322435 0.12967007 -0.0095916325 -0.054532096
00000000: 31be c8bc 5490 88bd ec03 9fbd c9e3 e6bc
00000010: 8d0e cabd 663f de3d 51b9 5cbd 83bf 46bc
00000020: c11c b23d e239 953d 1b9a b83c 626c 813d
00000030: 9c01 b6bc 12be 223d db69 bd3c b1b5 c23d
00000040: 8564 453a a923 e2bd 2236 a93c b2e5 9a3c
00000050: 94df 66bd 8018 e63d 37b9 e63c 039f 06bc
00000060: aca3 84bd a9f0 bc3b fbd5 983d 4f51 7bbd
00000070: 9447 343d 68a9 e33d fcf3 85bb fe17 e73c
00000080: 3c4c 4dbd a8c8 18bd 4890 6bbd c9df de3d
00000090: f77a f6bb 74b6 eebd 5920 a1bd 4c09 273d
000000a0: c9f1 363c 9534 5cbd 3ead 343e 330e 93bc
000000b0: 9811 a8bc da30 b0bc 5d94 fdbc 74d2 e23b
000000c0: 9041 4b3d cccd 0b3d 50ad 33bd 6ccc ff3d
000000d0: 4c70 70ba 73b3 933d e7fb f8bc 9ce4 4f3d
000000e0: 8958 ecbc 5b16 debd 058f 36bd 88be 643d
000000f0: bf48 81bd 0013 0ebd 5a83 923d bbc5 873c
00000100: cd6f 003d 6c4a 433d c2b5 e0bc 2781 68bd
00000110: 1a48 7ebc b146 963d 9fe2 1b3d 9c96 8f3d
00000120: 2cd0 80bc dde1 c1bd 562b edbc 1637 88bd
00000130: a425 bbbc c89e 09be 4051 d33d 598e 5b3d
00000140: 05a7 8f3c b110 dcbd 0569 113d a425 a9bc
00000150: 39a0 05bd 0179 933d 2fd0 e83c b774 e23c
00000160: c217 d3bc 294c 57bc 824c 28bc 005a b93d
00000170: 5a54 843d 4857 233d 8ed5 ae3b 9348 9a3d
00000180: 1c01 adbd 3b66 eebd e978 5abb 6550 753d
00000190: 2b74 68bd 02e5 dc3c fdcb c13d 5fad 40bb
000001a0: a289 543d 09ba 723b 13b1 16be dda9 693d
000001b0: e5db 573d d92c d03d 74bf 8f3d fd59 6f3c
000001c0: 1fe5 46bd 2664 043e 4550 b8bd c5c4 603d
000001d0: 8690 2a3d 1ed3 03be f45e 51bd 6653 a4bc
000001e0: a990 10bd 17de cdbd e917 1ebd a0bc 9e3d
000001f0: 187e c5bd 9bc5 5b3d 5238 05be 2335 b13c
00000200: 301f 0dbd 9c15 debc e328 d4bd af63 ac3c
00000210: 1abd a1bc 57e7 323c d6eb fc3b daea c4ba
00000220: bf6e fe3c e27e de3d 5f65 8b3d 2fb5 b73c
00000230: 8373 d4bc 24b2 13bd 915c 54bc 2484 213c
00000240: ec89 0d3d b2a4 e3ba 2e26 bb3d eb20 003c
00000250: 5cc0 39bd 771e 1e3d e93f 47bd 8224 b5bd
00000260: 6bd3 f93c 6069 36bd 7d95 303d dce6 7c39
00000270: f306 86bd 9362 3abd 7aaf b0bc 09de 003e
00000280: 6d1c a53c 53b3 3cbd fe84 8d3d 8bd4 c93c
00000290: a032 dd3c e4a2 3c3d f89a 133c f683 e1bc
000002a0: 72c9 503d aa7c 23be d93f 623d b71b abbc
000002b0: b33c 3ebd 152d 0bbd b8d4 623c 17f5 d93d
000002c0: de40 31bd 40c9 a7bc c48e a7bd 2912 2d3d
000002d0: 1e4c 74bd 3059 bf3d c01f 1a3c 384e 54ba
000002e0: 25dd 6bbd 38ff 57bd d21c 4b3d 2c97 dd3d
000002f0: e605 d3bc 83ef b63c 6fad a43d eac8 f63d
00000300: 817a a0bd 7b58 933d 1c4e 49bd 2d79 1a3d
00000310: 2b00 533d 2d00 adbc 8b27 65bd 8ff4 3dbd
00000320: 24b0 3fbc b5e5 0cbd 2b2f a43d ba55 b73b
00000330: 2376 a83d eafb a53d 05be ae3d a65b 28bd
00000340: 2852 0fbd 1c6e 113e 35e1 a8bd ec9c a43d
00000350: 3891 10bc 8423 873d bb01 843d 697c 8d3d
00000360: 2069 c03b a548 76bc fb24 cd3d 78c3 f13a
00000370: 48bc e53d 4700 d3bd de8a 803d 9403 793d
00000380: d155 2e3d b199 01bc cbeb 4dbd 7476 8ebd
00000390: b9bb 923d 8616 3fbc 8e96 85bc d1ed c9bd
000003a0: 9e2b 063c 6f21 353c a943 4d3d 2324 563d
000003b0: b207 da3d 83a5 933c 22af 843c cdb4 9a3d
000003c0: c688 12bc ea96 02be 8502 75bd 4458 183d
000003d0: 42ca 2abc d957 e8bd 0596 36bd 6c7c 86bd
000003e0: 9e82 13bc bbcf 473d cae9 693d a910 babd
000003f0: 3c7b a6bc 3bc8 043e 3926 1dbc 0c5d 5fbd

bias f4 [100]
-0.034591667 -0.046823923 0.01864536 0.033606764 0.01254239 -0.02068894 0.018887663 0.052961897
0.049247727 0.056604385 0.06632297 -0.014845124 0.051444273 -0.020613011 0.017706513 0.036199436
0.05549758 -0.025689619 -0.005900178 0.048444074 0.0151331145 0.04118937 -0.026394974 -0.006557707
0.013347908 -0.050557014 0.044627804 0.03499024 0.030631753 -0.062986106 0.03736555 0.007533396
-0.054916855 -0.061866328 -0.010681662 0.022851888 -0.046897806 0.008562931 -0.0608726 0.03699735
-0.00095490995 0.021469899 0.012343273 0.0035531253 0.06099267 -0.014762271 0.009278913 0.05041599
0.018144129 -0.016923843 0.06679889 -0.051366124 -0.023902444 -0.008825446 0.048628863 0.028831664
0.028046431 0.017781014 0.04624861 0.020751238 -0.038309533 -0.0062063015 -0.01909332 0.0065209144
0.011027578 -0.014205388 -0.043363925 -0.05553688 -0.062423594 -0.014489516 0.038271412 0.06257869
-0.03947946 0.030148016 0.059872918 0.057167046 0.020249644 -0.06949525 -0.028822957 0.00076998177
-0.05827662 0.005902573 0.022661122 0.011956836 -0.005664449 0.009306993 0.031015128 0.0059979097
-0.0066663944 -0.0497306 0.00472744 -0.035747536 0.050532103 -0.023383783 0.02286057 -0.01461174
-0.049432714 -0.0020155068 -0.0074548377 -0.02771576
00000000: feaf 0dbd 71ca 3fbd 27be 983c 3fa7 093d
00000010: 997e 4d3c da7b a9bc 4dba 9a3c 93ee 583d
00000020: fcb7 493d 00da 673d 56d4 873d f738 73bc
00000030: 3bb7 523d 9edc a8bc 400d 913c dc45 143d
00000040: 6e51 633d 0973 d2bc 4856 c1bb 4b6d 463d
00000050: e2f0 773c 2fb6 283d 463a d8bc 09e2 d6bb
00000060: 2fb1 5a3c df14 4fbd a5cb 363d ed51 0f3d
00000070: 71ef fa3c dcfe 80bd 9e0c 193d b5da f63b
00000080: 7ff0 60bd 8c67 7dbd 2302 2fbc e233 bb3c
00000090: ea17 40bd 894b 0c3c 8c55 79bd 898a 173d
000000a0: ec52 7aba a4e1 af3c 703b 4a3c 8ddb 683b
000000b0: 73d3 793d 74dd 71bc 9506 183c ff80 4e3d
000000c0: ffa2 943c dfa3 8abc dbcd 883d 4965 52bd
000000d0: 0fcf c3bc 9a98 10bc 0f2f 473d 6230 ec3c
000000e0: a1c1 e53c 7da9 913c 2f6f 3d3d 80fe a93c
000000f0: 75ea 1cbd 3b5e cbbb 9869 9cbc 65ad d53b
00000100: 04ad 343c b7bd 68bc 5f9e 31bd a47a 63bd
00000110: e2af 7fbd 6f65 6dbc 7cc2 1c3d 4229 803d
00000120: 37b5 21bd f9f8 f63c 4e3d 753d fe27 6a3d
00000130: 95e2 a53c 8753 8ebd 1f1e ecbc 9ad8 493a
00000140: 77b3 6ebd 5f6a c13b d1a3 b93c 9be6 433c
00000150: d89c b9bb 5c7c 183c 7013 fe3c 1d8a c43b
00000160: c571 dabb 50b2 4bbd a4e8 9a3b 026c 12bd
00000170: c0fa 4e3d 598f bfbc 1746 bb3c 1466 6fbc
00000180: f579 4abd 9816 04bb b647 f4bb 290c e3bc
