ex3/models/sae_model.pt (torch, 876892 bytes, 6 tensors)

weight f4 [256, 784]
00000000: 7c75 d2bc e0f5 56bb 80d6 203b a0fa 323c
00000010: 80b0 733a 3cdd 483c 4886 913c 4419 3d3c
00000020: 0879 823b 11a7 073d a018 0ebb 1099 b2bc
00000030: 5385 e63c a94c fabc df3a b43c 8d88 903b
00000040: 0a88 0bbd d0fc 0f3b e8f4 f2bc 80b6 9ebc
00000050: ba8c 04bd 626b fd3c 4619 be3c f8b8 163c
00000060: a09f 4ebb 53a4 c7bc 7aea a3bc d32a 96bc
00000070: c0bd 60bc 3bde 073d 2030 dbbc ae28 0cbd
00000080: a637 e93c 0091 deb9 d928 86bc 3312 e53c
00000090: 08c8 4abc 4c22 24bc 979b 503c d73f 7b3c
000000a0: 7c6c 8ebc ad4a b9bb e5ab cabc 0982 0fbd
000000b0: cd8c 0c3d 8464 e43c 614a efbc a989 083d
000000c0: d86c 5e3c 992e 913c 224e 6cbc a7ed 6cbb
000000d0: c030 793c 059c edbc a5bb 0cbd 6854 f63b
000000e0: c809 b73b 7d9b 02bd 029c 07bd e29d 09bd
000000f0: bf03 4bbc 3151 1e3c b480 c3bb 5efe 73bc
00000100: 699d e83c ccf7 203c 663c 093d d246 75bc
00000110: 90e6 1e3c 8643 2a3a 5beb ab3b f82d 42bb
00000120: cf5d cdbc af7f e93c 613c 9b3c e6c5 ea3c
00000130: 27a2 84bc e072 e73c 9f12 e6bc 987b 153d
00000140: 3445 04bd 637f 0fbc 5ad9 83bc 1193 ecbc
00000150: e0cb 22bb 22d2 e33c afba 063d e4a1 debc
00000160: 43ab 64bc 5870 9ebc 7ea1 473c 6e41 ff3c
00000170: f161 b6bb 40ad 163d 6f5e 033c 0743 19bd
00000180: c177 25bd 4ade 7dbc e102 86bc 06b7 0bbd
00000190: c5ef 02bd ba79 0ebd 9685 09bd 19b9 2cbd
000001a0: 646b 64bd b86e ac3c a4f7 593c fc18 2abd
000001b0: 9800 1dbc 6b2d ccbc 0ed4 233a ea27 7dbc
000001c0: 72c4 fb3c b02d 373b 0ca5 873c 4c02 c03c
000001d0: 0c6c 063c 4499 4a3c d6e3 6c3c 838e 8e3c
000001e0: 85a3 33bc dcf7 4dbc b8ef 4dbd c987 3abd
000001f0: 908e 4dbd f73f 5bbc ee5b aabc f263 54bd
00000200: b46c 26bc 4cbd 62bc cd47 86bc 2ca8 52bc
00000210: 3a16 fabc 18c2 933b a663 97bb 2815 403d
00000220: d779 cdbc bf62 ae3b 5488 883c b934 9f3c
00000230: 88e5 bc3b 3c2c aebc 2a7e f83c d588 a93c
00000240: 2879 28bd a8dd 2dbd b133 0ebd 3c7f f7bb
00000250: c0fa 85bc fcda fa3c f9a6 293d 4c41 073a
00000260: 9414 4fbd 4707 6bbd 5cf5 ebbc 9439 f3bc
00000270: d6a9 b8bd ec52 80bd 2e31 73bd 1cc8 5bbc
00000280: 01e9 83bd 43e8 92bc c1bd 9fbb d937 9f3c
00000290: ea14 7fbc 9557 21bb 8433 5cbc c6ed df3c
000002a0: 901f aa3c 28f8 a63b 83a8 ad3c 7519 07bd
000002b0: 089c 43bd c3b4 4dbd a47b 143c f303 e5ba
000002c0: dde7 733d 02c8 dd3c c256 8a3d 12a2 b3ba
000002d0: 020e 43bc 969d b6bc daf4 64bd 37c5 e3bd
000002e0: 0e7b fbbd dc85 9fbd 329f e3bc 1311 7ebc
000002f0: 4ddc 0ebb beaf 19bc 3813 10bc 1f72 f1bc
00000300: 466d 7dbc 3528 0d3d 4efb 7abc 100c fcbb
00000310: 8ada 523c a66b c9bc a738 823a b021 e7ba
00000320: e596 c0bc 5f4e 26bd 7c28 5fbc 55a1 043e
00000330: 6948 203e 9a04 ad3d 159b 4d3d 36c6 653d
00000340: 9ec0 1c3c eeba 6ebd 3418 6ebd 9e9b 12be
00000350: 7ce8 8abd 5c41 25bd d3f1 93bb b630 d83c
00000360: 13c6 06bb 6ef3 0fbc b6ea 7d3d 8cb8 8e3d
00000370: 61a5 56bc e1cf 073d 54b7 85bc dc9c 9ebc
00000380: 1add f6bc 3fab c73c 171e b53b eae2 7c3c
00000390: 5e2a e4ba 9ae3 913d 68f8 0f3b 9e52 833d
000003a0: 78f4 c13d d1de 9d3d 87bf 803d 567d 863c
000003b0: 876e 753d ac80 ad3c b1a8 91bd 2241 8cbd
000003c0: decf d1bd bb13 6abd b4c6 c4bc 86fd 023d
000003d0: 837a d13c 385b c43c 345a 233d ea24 a23d
000003e0: c265 ac3c e400 26bd c1f1 31bd 6f1a 163c
000003f0: dbdc 593c 7065 67bc 6b1b 833c 9236 123d
-0.025690787 -0.0032800362 0.0024541914 0.0109240115 0.0009296015 0.012259778 0.017764226 0.011541668
0.003981713 0.03311831 -0.0021682158 -0.021801502 0.028139746 -0.030554133 0.022000728 0.0044108094
-0.034065284 0.0021970756 -0.029657796 -0.019374132 -0.03236077 0.030934993 0.02320541 0.009199373
-0.003152825 -0.024370348 -0.020009268 -0.018330967 -0.013717115 0.03317092 -0.026756346 -0.034218483
0.028468918 -0.00042451173 -0.0163769 0.02796278 -0.012376793 -0.010017943 0.012732408 0.015335045
-0.017385714 -0.005654654 -0.024740169 -0.03503612 0.034313966 0.02787996 -0.029210271 0.033334408
0.013575755 0.017722415 -0.014422925 -0.0036152394 0.015209377 -0.02900506 -0.03435864 0.007517386
0.005585883 -0.031886566 -0.033107765 -0.033597834 -0.01239103 0.009662912 -0.0059662703 -0.014892189
0.028395372 0.009824704 0.033504866 -0.014970498 0.009698525 0.0006495047 0.0052465624 -0.002962945
-0.025069145 0.028503267 0.01894969 0.028658818 -0.016190602 0.028253019 -0.028085051 0.03649482
-0.03229256 -0.008758399 -0.016094852 -0.02887872 -0.0024840757 0.02781016 0.03289288 -0.027176805
-0.013956848 -0.019340679 0.012184499 0.031159129 -0.0055658747 0.036786318 0.00801812 -0.037417438
-0.04039741 -0.015494892 -0.016358795 -0.03411009 -0.031966943 -0.034784056 -0.033574663 -0.04216871
-0.05576648 0.021048889 0.013303671 -0.041527733 -0.009582661 -0.024924 0.0006249555 -0.015451411
0.03073332 0.0027950816 0.016558193 0.023438595 0.008204471 0.012365643 0.014458617 0.01740194
-0.010964279 -0.012571301 -0.05027744 -0.04553965 -0.050184786 -0.01338195 -0.020795789 -0.051853128
-0.010157753 -0.013839077 -0.01639166 -0.012857478 -0.030528177 0.0045092218 -0.0046200333 0.046895176
-0.025082512 0.00532183 0.016666569 0.01943432 0.005764667 -0.021261327 0.030333597 0.02069513
-0.04113117 -0.042447716 -0.034717266 -0.0075530093 -0.016354918 0.030621998 0.041419003 0.00051595713
-0.050556734 -0.057379987 -0.02880352 -0.029690541 -0.09016769 -0.06265816 -0.059373073 -0.013414409
-0.06440926 -0.017933017 -0.0048749154 0.01943581 -0.015568951 -0.0024618853 -0.013440017 0.027335059
0.020767003 0.0050955005 0.021198517 -0.032983262 -0.047756225 -0.050221216 0.009062681 -0.001747249
0.059547294 0.02707291 0.06754829 -0.0013704917 -0.011905195 -0.02229194 -0.05589757 -0.111216
-0.1227933 -0.077892035 -0.027785871 -0.0155070005 -0.002179879 -0.009380279 -0.008793645 -0.029473362
-0.015467947 0.034462173 -0.015318705 -0.0076918676 0.012869487 -0.024587464 0.0009935097 -0.0017633941
-0.023509452 -0.040602084 -0.013620492 0.12952168 0.15652622 0.08448143 0.050196726 0.05609723
0.009567408 -0.05828374 -0.05812855 -0.14317176 -0.06782624 -0.040345535 -0.0045149117 0.026390415
-0.0020564839 -0.0087860655 0.061991416 0.06968793 -0.013100953 0.033157233 -0.01632277 -0.019361906
-0.030134726 0.024373649 0.0055272686 0.01543496 -0.0017407646 0.0712349 0.002196813 0.06412242
0.09470457 0.077085145 0.06286531 0.016417187 0.05991986 0.02117952 -0.071122535 -0.068483606
-0.10244726 -0.057147723 -0.02402053 0.03198006 0.025571113 0.023969278 0.039880946 0.07917197
0.021044616 -0.040528193 -0.043443445 0.009161576 0.013297285 -0.014123306 0.016004285 0.035696574

bias f4 [256]
00000000: 6f5c 9fbd b81e ddbb d590 483d dc91 26bd
00000010: c33d 04be 5af1 58bd 3a42 cebd 3da2 75be
00000020: 0a9a 2cbd 1a63 88bd 1cbf 14bd b1a1 3d3c
00000030: ba1c 7dbd 6f65 d6bd 7b20 85bd 351a dbbd
00000040: 4b18 07bd 0133 9dbc 6374 babd 8c26 9abd
00000050: 6c48 943c d1e6 02bd e1e7 b3bb 1cd8 023e
00000060: d1b8 57bd 202e 80bd 6766 76bd 8d20 fdbd
00000070: 54ed 86bd 8b2c babd bbf0 ebbd ad66 acbd
00000080: 3c08 21be cf58 6abd 2ebf a5bc 0f48 82bc
00000090: 36fc cfbd 3001 0abe 6e74 423c 1ac0 a9bd
000000a0: c7d3 f2bc 0376 fbbd aeba f7bd bb0b 7abd
000000b0: adc4 babd b046 c7bd 23b9 1b3d bc4a 52bd
000000c0: fac8 d73d bb53 2abd a6f3 e7bc 2f24 c8bc
000000d0: bfd8 87bc 1285 bbbd 2b48 c5bd c469 97bd
000000e0: 5605 7ebd 5726 0ebd fe22 babd 83f5 a6bc
000000f0: af7a 55bd 3694 b5bd 0e30 a5bd bdcb b4bd
00000100: b000 cabc 7054 08bd 1123 42bd 193f 56bc
00000110: 5dcf 49bd d276 b63b 9da5 803d 9e80 69bd
00000120: 161d 5ebd 309e 09bd 23d2 5fbd a224 1cbc
00000130: a2c8 4c3d 194e 65bd b48d 47bd b76e 593d
00000140: 18cd 903c 583f 1cbb 2fb3 91bc 592e 68bd
00000150: 58b9 d2bc 5cc2 04be a1e0 abbd 1264 88bc
00000160: 044b 93bc 9034 93bd 6fa8 383d 35e8 47bd
00000170: e767 8bbd d417 a039 2de0 abbd 1c98 ecbd
00000180: 0378 2ebd 0d10 8f3d 7048 9fbd 80f6 b4bd
00000190: d88f 67bd 2475 8ebd 24e7 aabc c051 b7bd
000001a0: 300d b03c b660 7fbd bc35 833c c6b4 373c
000001b0: 5129 a8bc d0ae a1bd 5c63 d5bc 0690 ecbd
000001c0: ea26 913c c0cf 313d 0634 9bbd e7aa b03d
000001d0: f853 ddbc ae00 18bd d635 34bd a57a aabc
000001e0: c257 6b3c 36c9 61bd 7bcb 28be 7cb2 5fbd
000001f0: ef75 0cbc b352 68bd c759 11be 44f8 bfbd
00000200: 8dcf 58bd 8af0 ac3c d94d 80bd 0767 f9bd
00000210: 685b 1bbd b02e df3c 604c 993c 69d0 763c
00000220: 681e e73b 6257 9abd 79b6 27bc c523 91bd
00000230: abad 49bb fadf cbbd cd8f 073d bb37 f8bc
00000240: 5c9c 08bd 3360 d1bd 3022 4f3c a008 043c
00000250: 3e66 a1bd 382c f0bc 50d6 4238 27c7 333c
00000260: 0d2d a63c 45c0 acbd ae5c 703c f1ac 90bd
00000270: bff4 e4bc 126d ccbc a84f 103d bc1e d6bd
00000280: 51d7 e8bc fbf4 9fbd 28ff 11bd 4e4b 38bd
00000290: db1f c7bc 256e cd3d a40e 39be 4b11 6fbd
000002a0: b607 cebb 5331 843d 43fc 40bd 5c1c 09bc
000002b0: e7d4 143e ee10 8abc 2254 c5bc b2ac 7bbd
000002c0: 76b9 40bd 5b3c a1bd 9096 90bd 5396 b5bc
000002d0: 5bd3 82bd 1920 21bd e503 f8bd 3798 8fbd
000002e0: eeb7 1dbe 1fd8 56bd 5e9a d1bc 7684 abbd
000002f0: e4c9 98bc b3a9 64bd 10fa 8abd 7a90 41bd
00000300: 1483 2abc 8ead 83bc 8e51 9ebb 2274 e8bc
00000310: e88e 89bd 82f6 50bd bd7a 27bc 166e 1a3d
00000320: d5bf 0ebd 523b abbd 834a fdbc e92d cfbb
00000330: a6b0 9dbc 763c 3fbd d3e3 da3a ecf8 af3b
00000340: e2b5 92bd 6302 7ebb a25d afbd e862 62bd
00000350: 4c26 08be 8105 caba 3ac2 0fbd 1479 05be
00000360: 71eb 83bd 2d4e 043e 8c25 63bd 8662 1abd
00000370: 1dcc 043d 1592 76bd dc0d 64bd 7cb0 493c
00000380: 264f adbd 8f52 71bd 6066 c5bd 9348 d4bd
00000390: 3132 753d d8a2 1bbd a473 86bd 0491 a73b
000003a0: facb 2dbd 919e 7ebd 0396 febc 47b6 1cbd
000003b0: 11b0 bfbd 42f1 fcbd 9ac9 b4bd 6ced b2bd
000003c0: 6eb1 b7bd be06 2c3d 4cfd ae3a 5116 65bd
000003d0: f386 05bd b7d2 dbbd 1ebc d3bc 3a91 a8bd
000003e0: f265 b9bd 805f b53d ade5 94bd fbe1 f6bd
000003f0: ca01 86bd 0ecc 83bd dcb3 2abd fc7f 2d3b
-0.07781302 -0.0067480467 0.048966248 -0.040666446 -0.12914185 -0.052964546 -0.100712255 -0.2398767
-0.04213909 -0.06659527 -0.03631507 0.011574195 -0.061794974 -0.10468566 -0.06500336 -0.10698358
-0.032982152 -0.01918936 -0.0910423 -0.075268835 0.01810094 -0.031958405 -0.0054902886 0.12777752
-0.05266649 -0.06258798 -0.060156252 -0.12359724 -0.065882355 -0.09090527 -0.11520525 -0.08418021
-0.15725797 -0.0572136 -0.020232763 -0.0159035 -0.10155527 -0.13477015 0.011868579 -0.082885936
-0.029641999 -0.12278368 -0.12096153 -0.061046343 -0.09119544 -0.097302794 0.038018357 -0.051340804
0.1053638 -0.041583758 -0.028314423 -0.024431316 -0.016582845 -0.091562405 -0.096329056 -0.0739322
-0.062016807 -0.034704532 -0.090887055 -0.020380741 -0.052118953 -0.088661596 -0.08065806 -0.088279225
-0.024658531 -0.03328365 -0.047396723 -0.013076567 -0.049270023 0.0055683637 0.06281588 -0.057007425
-0.054226957 -0.033598125 -0.05464376 -0.009530218 0.049996026 -0.055982683 -0.048719123 0.0530841
0.017675921 -0.0023841467 -0.017785637 -0.056684826 -0.025723144 -0.12964767 -0.08392454 -0.01664928
-0.017980106 -0.0718776 0.045082506 -0.048805434 -0.06806927 0.00030535331 -0.083923675 -0.1155245
-0.04259492 0.06985483 -0.07777488 -0.08836079 -0.056533664 -0.069559366 -0.02086217 -0.089511395
0.021490663 -0.06234809 0.016016833 0.011212533 -0.020527514 -0.07894671 -0.026048355 -0.11550908
0.017718751 0.043411016 -0.07578282 0.08626347 -0.027017578 -0.037110023 -0.043996654 -0.020810435
0.014364185 -0.05512353 -0.16483872 -0.054613575 -0.008573039 -0.056719493 -0.14194404 -0.09373525
-0.05293231 0.021110792 -0.06264848 -0.12177854 -0.03792897 0.027243942 0.018713176 0.015064337
0.0070531853 -0.07536198 -0.010236376 -0.070869006 -0.003077368 -0.099548295 0.033096123 -0.030300012
-0.03335224 -0.10223427 0.012642428 0.008058697 -0.07880829 -0.02931796 4.64528e-05 0.010972775
0.020285154 -0.0843511 0.014670534 -0.07064236 -0.027948735 -0.024954353 0.035232216 -0.10455081
-0.028422983 -0.07810398 -0.035643727 -0.04499369 -0.024307182 0.10030774 -0.18071991 -0.0583661
-0.0062875403 0.0645472 -0.047115576 -0.008368578 0.14534341 -0.016853776 -0.02408797 -0.061443992
-0.04705187 -0.0787284 -0.070599675 -0.022166407 -0.06387969 -0.03933725 -0.12110118 -0.070114546
-0.15402195 -0.052452203 -0.025586303 -0.08374874 -0.018650956 -0.0558259 -0.06785977 -0.047256924
-0.010407228 -0.016073968 -0.0048314994 -0.028375689 -0.0671671 -0.05101634 -0.010222134 0.037702642
-0.034850914 -0.08360924 -0.030919319 -0.0063226116 -0.019249272 -0.04668852 0.0016699977 0.00537025
-0.07163598 -0.0038758747 -0.08562781 -0.055270106 -0.13295859 -0.0015413017 -0.03509734 -0.13034469
-0.06441391 0.12920447 -0.05545573 -0.037691616 0.03242122 -0.06019791 -0.05567728 0.012310144
-0.08462362 -0.058916625 -0.09638667 -0.10365405 0.05986232 -0.037997097 -0.065650254 0.0051137228
-0.042430855 -0.06216294 -0.03107739 -0.03825977 -0.09359754 -0.12350704 -0.08827515 -0.08736691
-0.08969389 0.041998617 0.0013350635 -0.055929486 -0.0325994 -0.1073355 -0.025846537 -0.08230825
-0.09052648 0.08856106 -0.0727037 -0.12054821 -0.0654331 -0.06435405 -0.041675434 0.002647399

weight f4 [64, 256]
00000000: da9a 59be bb0c 073e 48fa 05bf 265b c73c
00000010: 7f1a 6dbd 797e 843e eee7 363f 25c8 56bf
00000020: 4d98 cf3d f522 34be 4092 6dbe d1f7 69bc
00000030: 3202 0bbf 12e0 57be 65ab 2cbe 9b46 433d
00000040: dcdc d4be 9e5a 07bf e19c 95bd be9f efbe
00000050: da3a 253e 3691 af3e 7b3c c0be 418e 973e
00000060: 5eb0 9e3d ee2d fabe 8978 55bd 7d45 90be
00000070: 2a2b 10bc 4b36 d3bd c592 b6be ee32 11be
00000080: b2ec 3fbf 7047 1bbe 972a 4c3f d42f 30bc
00000090: 54ea 43be b06d 44be ea04 43be ee9b e5bd
000000a0: 1242 723e c9ae 2abf fff8 32bf 874a 0fbe
000000b0: 33e3 00be cd0c bdbd 830f 3ebc 8daf af3d
000000c0: c3d3 f73e 8483 b0be d576 513e a3b0 bd3e
000000d0: 7e1d fcbe 7e87 f8bc 947c a53e e18a 80be
000000e0: 8944 6b3e 9934 293e a204 153e 69ff 67be
000000f0: 79f0 ff3d 975f 533e 96fe 56bc 2214 a0be
00000100: 9826 dd3e 3762 01be 8005 06be ddb6 cdbb
00000110: e989 113e 83fc 0bbe 8384 e93e 67e0 a3be
00000120: 2eb2 383e 01f7 163e 704d d13e 2d95 f9bd
00000130: 0c25 3f3f 66b8 b13e db39 1d3f 0d3b 1f3f
00000140: 153f 523f 286e c1bd 4921 8a3e 658b 49be
00000150: 972f ed3e cf22 e23a 67e3 143e a31d 1e3e
00000160: 8bc3 303c fae5 7dbe 7ee9 c93d 2bdf f23d
00000170: a7fb 83be c445 b7be b140 e3bd cbd6 06bf
00000180: bdaa b5be adaf 23bd 57a5 6fbe 3ca7 f5be
00000190: cd4c df3c cbb0 9e3d 3672 a3be 3ec0 97be
000001a0: 64e6 f03e b0e0 063e 86d2 9dbc e85f f3bb
000001b0: c11e 13be 5a42 a8be 642e cabe 78a4 9dbe
000001c0: 2ce1 3b3e b2e9 9c3e 9e43 9cbe 6ecd cd3e
000001d0: 25f5 403d 01be 3ebe c425 413e 4ed4 953e
000001e0: 1031 d63e 9f0b 983e 5d87 86be 84d7 583d
000001f0: e237 1cbd 07b4 5bbd 2722 14bf f3bd 86be
00000200: 3b25 5d3c 01d5 573f 7868 623e 7932 acbe
00000210: 602e 98bc 31a0 1e3e 4e2c b13e da6c 573e
00000220: ccb9 e03c 9957 ffbd 5420 723e 7abd c1be
00000230: 5f23 a13e 3557 11be 1975 0c3e 7f2a 083c
00000240: 49ff a53b a2f6 38bf c431 e63d e07f 0ebe
00000250: 5ad6 493e 718c 81bd e161 7dbe 8412 5e3e
00000260: 617f 343f a733 b1be 78b0 0c3e b342 dabe
00000270: 88e0 92bd 0494 c7be fe2f ee3e 903b 17bf
00000280: a2e4 7ebe 45e1 223d 0cb0 173e 50f0 41be
00000290: c3fe 633e 90a5 eabe 8709 bdbe ac60 e23b
000002a0: 5111 0dbd 8c07 be3e 4ff2 093e 4e1c 6f3e
000002b0: a1a4 393e 1a85 13be 6afa c4bd 59ab 58be
000002c0: 16ab b23e d7a7 82be 0057 0a3f 759d 0bbf
000002d0: 06bc f13d a753 9c3d af28 65be 91d5 fe3d
000002e0: ca92 c7be 17a5 973e 851c 123e be2e 04bf
000002f0: 322f df3e 44b7 02bf 0d76 b9be 082d ca3e
00000300: e05b 4abc 1e1c 77be 41d7 593e 2d8d aa3e
00000310: 5253 29be 646d 4abe 17b2 d93d b57e 053d
00000320: 2d7f 6e3d 81fa 693d 64a4 1cbe fef1 553f
00000330: bebd 43be 9e72 0abe 99e7 56bd 26f2 b93d
00000340: c063 d73d e0c9 fabc 90e9 36be e8bf a7be
00000350: f096 9dbe 7d82 bdbc a688 ca3e f04e b4be
00000360: 2064 10be d92a f53e 90c1 ab3e 150f adbc
00000370: bfa0 9dbe 9291 ad3c a042 59be 636a 053e
00000380: 73f3 613e 909c 013e 4182 44bf 1ada 81be
00000390: 9d9e 85be f33e 37be 0fb5 e3be d198 a33e
000003a0: 9371 3a3e 13c6 053f ca27 aebe 42f0 0ebf
000003b0: 522f 7d3c e023 b0be da4a 06be 0944 d0be
000003c0: ad4b b6bd 925c 203e 861d f9be b8a9 163e
000003d0: e8d0 333d 263f 14bf 23e7 113f 51b3 0bbf
000003e0: 0f39 77be 2221 2dbe 7ed1 f23d 7aa4 29bf
000003f0: caa0 b83c 2477 0b3e 7642 3d3e bd77 b1bc
-0.21250477 0.1318845 -0.52335024 0.024335455 -0.057886597 0.2587774 0.71447647 -0.83899146
0.10136471 -0.1759146 -0.23200321 -0.014280275 -0.54300225 -0.2108157 -0.16862257 0.047674756
-0.41574752 -0.52872646 -0.07305313 -0.4680156 0.16135731 0.34290475 -0.37546143 0.2960072
0.07748483 -0.48863167 -0.052116904 -0.28178015 -0.008799354 -0.1031309 -0.3565885 -0.14179584
-0.74970543 -0.1516397 0.79752487 -0.010753591 -0.19132358 -0.19182467 -0.19044843 -0.11211382
0.23658016 -0.6667295 -0.6991119 -0.13993274 -0.1258667 -0.09230957 -0.011600378 0.085784055
0.4840375 -0.34475338 0.20455487 0.37048826 -0.4924125 -0.030338045 0.32321608 -0.25105956
0.22975363 0.1652397 0.14552549 -0.22656025 0.124970384 0.20641933 -0.013122221 -0.3126536
0.43193507 -0.12635122 -0.13088036 -0.0062779025 0.14212765 -0.13670544 0.4560891 -0.32007143
0.1803672 0.14742662 0.40879393 -0.12186656 0.74665904 0.34710997 0.61416405 0.6219948
0.82127506 -0.09444839 0.2697852 -0.19682081 0.4632537 0.0017252805 0.14539872 0.15440993
0.010788809 -0.2479476 0.09858988 0.11858972 -0.25777933 -0.35795414 -0.11096323 -0.526715
-0.35481825 -0.03996246 -0.23402916 -0.47979152 0.027258301 0.07748564 -0.31923074 -0.29638857
0.47050774 0.13171649 -0.019265424 -0.0074272044 -0.143672 -0.32863122 -0.39488518 -0.30789542
0.18347615 0.30647045 -0.30520338 0.40195793 0.047108788 -0.18627168 0.18862063 0.29263538
0.41834307 0.29696366 -0.2627515 0.052939907 -0.03813923 -0.053638484 -0.5786461 -0.26316795
0.013497646 0.84309393 0.22110164 -0.33632258 -0.0185768 0.15490796 0.34604114 0.21037617
0.027432345 -0.1246788 0.23645145 -0.37839872 0.31472299 -0.14193423 0.13716544 0.008310913
0.0050658328 -0.7225133 0.11239961 -0.13915968 0.19710675 -0.06325615 -0.24744369 0.2168675
0.70506865 -0.3460972 0.13739192 -0.42629012 -0.07171732 -0.38980114 0.4652099 -0.5907526
-0.24891904 0.039765615 0.1481325 -0.18939328 0.22265153 -0.4582944 -0.3692133 0.006908497
-0.034440342 0.37115133 0.1347134 0.23350641 0.18129207 -0.14406243 -0.09618075 -0.21159114
0.34896153 -0.25518677 0.54039 -0.54537135 0.11803441 0.07633143 -0.22378801 0.12443078
-0.3897918 0.2961814 0.14268692 -0.5163382 0.43590695 -0.5106089 -0.36222878 0.3948748
-0.012351006 -0.2413182 0.21273519 0.33310834 -0.1653569 -0.19768292 0.10629671 0.03259154
0.058226753 0.057123665 -0.15297085 0.83572376 -0.1911535 -0.13520285 -0.052466962 0.09079389
0.10517073 -0.03061384 -0.17862535 -0.327636 -0.3077922 -0.02313351 0.3955738 -0.35216475
-0.14100695 0.47884253 0.33546114 -0.021125356 -0.30786702 0.021187577 -0.21216822 0.13028865
0.22065525 0.1265738 -0.7676125 -0.2536171 -0.26097575 -0.17895107 -0.44474074 0.31952527
0.18207388 0.5225536 -0.34014732 -0.55835354 0.015453177 -0.3440237 -0.13114491 -0.40676907
-0.08901153 0.15660313 -0.48655337 0.1471318 0.0439004 -0.57908857 0.5699331 -0.5457049
-0.2414286 -0.1690717 0.11856364 -0.66266596 0.022537608 0.13619667 0.18482384 -0.021663541

bias f4 [64]
00000000: bf9d bb3d 5798 003e 11f4 d63d 0696 733d
00000010: fdc6 a6be 26be ca3d ea26 703d 7f76 843e
00000020: 6601 653e 6582 073e cf79 8dbd 11b8 033e
00000030: 5683 083e df3d 23bf ba40 a33d bc3e 16be
00000040: 0a01 423e efdd c2bd 30cc 3a3e 012e 853e
00000050: 97fc 923d 5998 053e c5ae 2e3e d5e6 e23d
00000060: 65bb 063d 72e8 9f3d 4555 553e 2e8a 09be
00000070: 37fd 0e3e 4ff5 223e 2e79 1f3e dd26 3e3e
00000080: ea7b 1f3e 0a32 143e 53e2 fa3d fb38 133e
00000090: 3509 153e 96af 043e 1b92 5c3e ccfc 653e
000000a0: 801d 0a3e 66c7 303e 4c8a 233e dd5d 1d3e
000000b0: 1123 d7be 8df5 1e3d 5dd5 803d 1708 9fbd
000000c0: fc47 d13d 0b45 943d ad1a 2d3e f350 a43d
000000d0: aa1f 413e 5933 303e 9c50 ae3d 84f9 203e
000000e0: 10d4 873e c432 34be 4af8 263e fac5 373e
000000f0: 5f47 ec3d a2e0 473e d6b2 efbd 73ba b13d
0.09160947 0.12558113 0.10495771 0.059469245 -0.3257369 0.09899549 0.05863086 0.25871655
0.22363815 0.13233335 -0.06907999 0.12863185 0.1333135 -0.6376628 0.0797133 -0.14672369
0.18945709 -0.09514987 0.18241954 0.2601166 0.07177084 0.13046397 0.17058857 0.11079184
0.032893557 0.07808007 0.20833309 -0.13431618 0.13963781 0.1591389 0.1557357 0.18569513
0.15574613 0.14472213 0.12250199 0.14377205 0.14554293 0.12957606 0.2154011 0.22459716
0.13487816 0.17263564 0.15970725 0.15367837 -0.4201894 0.038808394 0.06290696 -0.07765215
0.10218808 0.072397314 0.16904707 0.08023252 0.18859735 0.17207088 0.08511469 0.15720183
0.26528978 -0.1759749 0.16305652 0.17946616 0.115370505 0.19519284 -0.11704032 0.086781405

weight f4 [10, 64]
00000000: e670 c5bf 0e1b 3dbf bb17 6bbe 6a37 d4bd
00000010: 9bf4 b33f cdf5 00bf 1a4e e8bd f5f1 133f
00000020: 641b 783f 85c8 e33d 69d2 0fbf 7b87 8abe
00000030: 50c2 21bf 5c56 c63e 8f8b 83bf deab 92bf
00000040: e4d1 97be 2734 f93f 3875 81be a424 32be
00000050: f6fd 183f 10e9 64be f917 81bf f694 f83d
00000060: 16b4 3cbf b335 29be d5ae 23bf b050 903f
00000070: be45 d0bd ccb7 febe 9d84 93bf b7ec b6bd
00000080: 509d 99bf 4e84 273f f8d0 e3be 7cda 20bf
00000090: 2c4c 0ebf c1b9 03c0 a0bc d23c f5ce 19bf
000000a0: 18fc e13d c5ab c03e 521a 26bf 1c0d b3be
000000b0: e490 3840 807f 603e c026 66be 76e8 66bf
000000c0: aa62 1abf 6a73 66bf d3c4 19bf 4c98 e9bd
000000d0: 674b 8d3e 18bd 79bf d731 893f 5cc7 05bf
000000e0: d4e7 8a3e b622 973f 6c7a e6be 56cd 06bf
000000f0: a47b 94be f181 e6be 83b7 413f 4691 c23d
00000100: 736b 6b3f 9c94 623f 86cd e63e edab 97bd
00000110: c7ba fbbf 8609 443f a936 103f 5342 19bf
00000120: de0d b83e 638a 943e 36a8 2e3f 9f35 453f
00000130: e6c1 553f 1cfe cebf c88c 46be fe88 0f3f
00000140: 125a 063f 848e 38bf 1bc3 9a3e 6567 3d3f
00000150: 8c9b 80bf 18be d43e 442e ee3e 55f4 2b3f
00000160: b4d9 34bf a01d 2ebf 46b9 b73e 3f47 d43e
00000170: bc76 203f 4e36 3f3f f101 da3f 5451 183f
00000180: f5e7 9d3f dff5 9f3e 4001 003e 512a 663f
00000190: 4a3b 013f da1d c6bd 8ad8 5d3e 3911 b53f
000001a0: c672 9b3c 0d1b 7b3e 67f7 003f 00e7 00bd
000001b0: c28c 41bf 1c85 d4be 80a4 e63e 3eb0 13bf
000001c0: 5f92 903f ca9a acbe 1330 043f 77aa b33e
000001d0: d9ef e5bd 10f2 1b3f ffb4 153e 3482 543e
000001e0: fc88 033f 2544 a3bf 92ac a93e 0919 cebe
000001f0: ee88 443f 3551 133f 0a6d cebd 5961 0e3f
00000200: 79ee c53f 9f72 ca3d 549b a7bd 7693 9f3f
00000210: 6419 cc3f 9c08 55bf d10f 723d 822b 563f
00000220: d256 00be d2a3 4cbf e9ab 533f fe47 02bf
00000230: 70d2 cdbe 1655 bcbd 4835 6f3f 0b45 693f
00000240: 822f 303f dc7c e03f 3dcd c7be 02d8 8dbe
00000250: ce04 d5be 8d7d 4ebe 1a6e 513f 20fe bf3d
00000260: c08a 253c c6c0 e6be 6d8a 0fbf ab73 df3d
00000270: 5fd5 2cbe 9420 9cbe 2096 fdbd ef7d d93c
00000280: 1b77 c3be 4d46 98ba e7af b8bd 34a5 adbd
00000290: 26cb 14bd 6ed5 cc3e b291 a3bf 58b1 a1be
000002a0: 7041 483e 6fcc 5bbe e904 bcbe 4b53 17bf
000002b0: 2af3 903d 32fb d4bd 3da1 44bd 8719 bdbf
000002c0: e4a7 acbd 0411 96be fbb4 eebe 4d12 51be
000002d0: 6b11 f43f 1cc5 6abf 19d8 94be 0944 883f
000002e0: 0915 d43d 227b b8bf 46c8 4abf 02f1 8d3f
000002f0: 0733 dc3f 23fc 21bf d15a 97bf 0c17 a0be
00000300: 1f4d b23f f059 8bbe 0c2d 343d 6a1c f8be
00000310: 5311 22c0 5fd3 bfbf 88a7 e0be 68ae a53f
00000320: be75 1bbf 94cd 97be a84b 9cbf e170 9b3e
00000330: fcbb 61be 4141 963d c285 1e3f e7f9 8d3f
00000340: 0ed7 01bf 6634 2dbf f480 96be 0306 c6bd
00000350: b40e 1cbf 11a9 f33e 1e9f f2be 2377 23bd
00000360: 87ef bd3e 8ee8 80be 4db9 b3bd 3be8 f73e
00000370: 5851 8fbd ac41 643f bbd3 93be c1c4 acbe
00000380: d797 5ebf 9a7c 25bf b8d6 aabe 5332 403f
00000390: 459b 973f e742 b73e 2ab0 0d3f f947 a4be
000003a0: 74ca 893f 33c0 8cbe 12b0 8f3f 8915 a73f
000003b0: 8ec2 1b3d 9537 0a3d 4782 dc3c f673 833f
000003c0: 5dbd 1abe 454a 933f 0a49 e93c 9e30 a2be
000003d0: 9fda 053f 024d 3d3e b2fe 02bf 04e3 89be
000003e0: a20c 07bf c27f c23f 3021 d43b 97d9 82bf
000003f0: 49df 96bf 468d cd3e 0858 71bf a8fb afbe
-1.5425079 -0.7386941 -0.22958271 -0.10362132 1.4059023 -0.5037506 -0.11343022 0.5779107
0.96916795 0.111222304 -0.56180435 -0.27056488 -0.6318712 0.38737762 -1.0276965 -1.14587
-0.2965232 1.9469041 -0.25284743 -0.1739679 0.59762514 -0.22354531 -1.0085441 0.12137787
-0.7371229 -0.16524391 -0.6393865 1.1274624 -0.10169552 -0.497496 -1.1524845 -0.089318685
-1.2001133 0.65436256 -0.44495368 -0.6283338 -0.5558498 -2.0582125 0.025724709 -0.60081416
0.11034411 0.3763105 -0.6488391 -0.3497094 2.8838434 0.21923637 -0.2247572 -0.9019846
-0.603068 -0.9001986 -0.60065955 -0.114060014 0.2759659 -0.9755416 1.0718335 -0.52257323
0.27129996 1.1807468 -0.45015275 -0.5265707 -0.2900058 -0.45021012 0.7567064 0.09500365
0.9196083 0.8850801 0.45078677 -0.07405839 -1.9666375 0.7657703 0.56333405 -0.5986683
0.3594808 0.2901183 0.6822542 0.77034944 0.8349899 -1.6171298 -0.19389641 0.5606841
0.52481186 -0.7209246 0.3022698 0.7398589 -1.0047469 0.4155128 0.46519673 0.67169696
-0.7064469 -0.68013954 0.3588354 0.41460606 0.62681174 0.7469224 1.7031842 0.59499097
1.2336413 0.31242272 0.12500477 0.8990832 0.5048109 -0.096736625 0.21664634 1.4145881
0.018975627 0.24522038 0.50377506 -0.0314703 -0.75605404 -0.41507804 0.4504738 -0.576908
1.1294669 -0.33711845 0.51635855 0.35090992 -0.11227388 0.60916233 0.14619826 0.20752794
0.51380897 -1.2755171 0.33139473 -0.40253475 0.7677144 0.5754579 -0.10079391 0.5561729
1.5463401 0.098851435 -0.08183923 1.2466877 1.5945249 -0.8321626 0.059097115 0.8366014
-0.1253312 -0.7993747 0.8268419 -0.508911 -0.40199614 -0.09195916 0.93440676 0.91120976
0.6882249 1.7538104 -0.39023772 -0.27703863 -0.41605228 -0.20165081 0.81808627 0.09374642
0.010103881 -0.4506895 -0.56070596 0.10910734 -0.1687827 -0.30493605 -0.1238215 0.026549308
-0.38176808 -0.0011617631 -0.09017926 -0.084787756 -0.03632655 0.40006584 -1.2778838 -0.31580615
0.19556212 -0.21464704 -0.36722496 -0.5911147 0.0707763 -0.10399474 -0.04800533 -1.4773415
-0.0843046 -0.29309857 -0.46622452 -0.20417137 1.9067816 -0.91707015 -0.2907112 1.0645763
0.10355575 -1.4412577 -0.79211843 1.1089175 1.7203072 -0.63275355 -1.182459 -0.31267583
1.3929785 -0.27217054 0.043988273 -0.48459178 -2.5323074 -1.498638 -0.43877816 1.294385
-0.60726535 -0.2964903 -1.2210588 0.30359557 -0.22044367 0.07336665 0.6192285 1.1091889
-0.5071877 -0.6765808 -0.29395258 -0.096691154 -0.60959935 0.47589925 -0.47387022 -0.03990854
0.37096807 -0.25177425 -0.08775578 0.48419365 -0.06997937 0.8916271 -0.28872475 -0.3374386
-0.8695044 -0.6464325 -0.33366942 0.7507679 1.184426 0.3579323 0.5534693 -0.3208616
1.0764909 -0.27490386 1.1225607 1.3053447 0.03802734 0.033744413 0.02691759 1.0269763
-0.15111299 1.150704 0.02847721 -0.31677717 0.52286714 0.18486407 -0.51169884 -0.26931012
-0.5275365 1.5195239 0.006473683 -1.0222653 -1.1786891 0.40146846 -0.9427495 -0.34371686

bias f4 [10]
00000000: 3199 f63e 356c ecbf 684e 90bd 2685 83bf
00000010: b8ee b03e 68f9 a1be 813e 0d3f dbd3 71be
00000020: 637f 793f 52ac 513f
0.4816375 -1.8470522 -0.07046205 -1.0275009 0.34557128 -0.31635594 0.551735 -0.23615973
0.9746 0.81903565
