ex3/models/sae_model.pt (torch, 876327 bytes, 6 tensors)

weight f4 [256, 784]
00000000: 1892 413c 10da 503b 411e f5bc 708c bfbc
00000010: 808f e239 2a5e b63c 4e30 09bc b883 a9bb
00000020: 40d9 2cba f88e 6dbc 778b a2bc 3032 d83b
00000030: 90e4 273c f8ae f23c ccb7 8fbc a8c4 b7bc
00000040: 1877 ce3c e334 eebc f0eb cbbb 806c 7dbc
00000050: 0852 b0bc c03e 883a 1d26 0c3d 25b8 b5bc
00000060: 2ca3 86bc a6ec b83c 3eda 8bbc 60c5 46bb
00000070: 60b7 8aba f8fe 6fbc b54b 9fbc 7a10 f93c
00000080: c06c e3ba a40d 0a3c 8834 463c a4f8 84bc
00000090: f70c 0fbd 8f6c 84bc 2118 cebc 59b1 f03b
000000a0: d06c a43c 8b79 54bc d1c1 863c d2b3 47bc
000000b0: f375 5a3c e6b2 b4bb bb11 f5bc 2db4 80bb
000000c0: e841 b13b 60a1 10bd 70e5 27bb 44bf 353c
000000d0: 7838 bd3c 20f9 483c ea53 afbc 6e77 6bbc
000000e0: 33b2 afbc 4eee 903c f272 df3c 50d0 09bd
000000f0: d8fb 103c ffb2 813c fe0a e3bc 479d ee3c
00000100: 49c2 b4bc c1fc 003d 17a8 913c 95f4 06bd
00000110: 1be4 7f3c b4b9 1e3c 86e3 0a3d 86a7 c93c
00000120: fce5 babc 22b9 74b9 b9fc 8bbc 8e30 f53c
00000130: b57e 80bc 1391 b7bc 206e 043d 8068 64bc
00000140: 7eea ef3c 8b66 c4bc 53dd 96bc 4027 a63b
00000150: 981f 4b3c d00b 673c 0a0c 59bc a2f1 43bc
00000160: f739 97bc b03d 323c d076 03bc d5c3 76bc
00000170: dcc7 51bc 2321 babc ebd7 3bbc 59e1 58bc
00000180: 7e5a e9bc 7996 e83a 76c3 153d fb37 2d3d
00000190: 657d c5bb 6b75 223d 6590 29bd 6986 f0bc
000001a0: 7698 a93c c803 83bc 510c 3f3c efb7 f43b
000001b0: 020c f33c 6804 54bc d971 8a3c c515 bfbc
000001c0: eed5 f23c caa2 813c 007b ffbb ff9a f23c
000001d0: 849c 343c 44ca 66bb 54b2 ca3b 030b cebb
000001e0: e101 cbbb 5bd1 013c 216a dbbb 10e5 63bc
000001f0: 69e0 2dbd e826 8fbd 0b45 75bc 0003 18bd
00000200: 619b 21bc 42bc 82bc 4517 b6bc 13e8 1bbd
00000210: 775d 66bd be08 63bc 0b3d d9bc f9b4 36bc
00000220: a875 513c 76fa e23c b2f7 7dbc 64bc 2a3b
00000230: cef7 cdbc 0077 2bbc 0650 da3c f0a2 c0bc
00000240: 9145 39bc ca7e 3f3c 9183 013c ea22 f4bc
00000250: 178f 60bd c9f8 e2bc b099 22bd 51e5 aabd
00000260: edfc e5bd 4a9b b5bd ab95 30bd a1da bdbb
00000270: 0ae8 adbd 6060 c9bd e8ef ccbd a646 84bd
00000280: 0bf2 b1bd 4d38 74bd d54e 01bc ad19 833c
00000290: 4244 09bc ce4b 6d3c 05a0 303c 7c41 12bd
000002a0: c150 fdbc 7e34 a43c 1a0e 3fbc 8089 bf3c
000002b0: 92d3 ddbc 5f23 053d d0aa 223b 9adf f1bc
000002c0: 4c02 f7bc 4a3a ebbc 794f e23b e3f0 16bd
000002d0: c067 7cbd a417 89bd 4e1c 92bd 83b4 babd
000002e0: 6989 11be 4a16 17be 1568 cebd a0df c8bd
000002f0: c4a6 7dbd 9843 a3bd 4b4b a2bd ade6 1dbd
00000300: 1c44 1f3b bda5 1dbd b793 593c d5ec eabc
00000310: d7f9 8bbc 0fe8 053d 32f0 48bc c179 103a
00000320: b4f1 553c b664 dc3c 2c4f 723d 0fcf 823d
00000330: bb89 773c 8224 29bc 501b 353d 0fb6 a93c
00000340: f549 8cbd e8e5 0ebd f58f 69bd 005b 08be
00000350: 407e fcbd ceb4 a2bd a77a 49bc 7fe0 f0bb
00000360: 3453 f63a f246 3bbb 500a 3dbc 5cc7 0ebd
00000370: 6654 533b 6017 a2bc 427f b83c ad4c 00bc
00000380: afa2 cebc 84fe 34bc 1646 18bc b996 8cba
00000390: 0da0 ed3c 2cab c63d ca13 8b3d d664 023d
000003a0: 2cf9 913d fd71 ea3d 5564 e33d 2ef1 1f3d
000003b0: 56ce 3a3d 1adf ad3c 5d96 733d ca83 033d
000003c0: 76a6 80bd c235 7fbd 709a dbbd 416f d4bd
000003d0: b765 fdbc 10b6 f2bb 149c 2c3d ff88 c73c
000003e0: 89c9 2bbd 5282 bfbb e906 643c 8c7f b43b
000003f0: ed8d 073d d066 313b 5501 9d3c 590d 6a3d
0.011814617 0.0031868257 -0.029921653 -0.023382396 0.00043212995 0.022261698 -0.008373333 -0.005173173
-0.0006593652 -0.014499418 -0.019841893 0.0065977797 0.010247365 0.029624447 -0.017543696 -0.02243264
0.025203273 -0.029077953 -0.0062231943 -0.015467763 -0.02152349 0.0010394678 0.034216035 -0.022182534
-0.016435228 0.02257378 -0.01707184 -0.0030330047 -0.0010583214 -0.014648192 -0.01944528 0.030403364
-0.0017351136 0.008426104 0.012097485 -0.016231842 -0.034924474 -0.016165046 -0.02515799 0.0073453602
0.020071417 -0.012968431 0.01644984 -0.012188869 0.013333785 -0.0055144904 -0.029915681 -0.0039277286
0.005409468 -0.03531015 -0.0025618933 0.011092965 0.023098215 0.012266427 -0.021402318 -0.014371736
-0.021447277 0.017691758 0.02727649 -0.033645928 0.008849107 0.015832422 -0.027715202 0.02912773
-0.022065299 0.031491045 0.017780347 -0.032948095 0.015618349 0.00968783 0.03390839 0.024616014
-0.022814743 -0.0002333862 -0.017088281 0.02993038 -0.015685419 -0.022408044 0.032331586 -0.01394093
0.02928662 -0.023974678 -0.018416082 0.005070597 0.012397669 0.014101937 -0.013247499 -0.011959465
-0.018460257 0.010878965 -0.008023933 -0.015061338 -0.012803998 -0.022720879 -0.011465053 -0.013237321
-0.028485533 0.001774504 0.03656336 0.042289715 -0.006026911 0.03966276 -0.04139747 -0.029360967
0.020702582 -0.015993014 0.011660651 0.0074682157 0.029668812 -0.012940504 0.01689999 -0.02332581
0.029643025 0.015824694 -0.007796645 0.029614924 0.011023644 -0.0035215775 0.006185809 -0.006287934
-0.0061952923 0.007923449 -0.006696001 -0.013909593 -0.042450342 -0.06989843 -0.014970074 -0.037112236
-0.009863705 -0.015958909 -0.022227893 -0.03806312 -0.05624148 -0.013857065 -0.026518365 -0.011151546
0.012784399 0.02770732 -0.01550095 0.002605223 -0.025142577 -0.0104653835 0.026649486 -0.023515195
-0.01130809 0.011687944 0.007904903 -0.029801805 -0.05482396 -0.02770652 -0.03969735 -0.0834452
-0.112298824 -0.0886751 -0.043111484 -0.005793885 -0.084915236 -0.09832835 -0.10006696 -0.064587876
-0.08688744 -0.059624005 -0.00789233 0.016003454 -0.00837809 0.014483405 0.010780339 -0.035706982
-0.030922296 0.020044561 -0.011661077 0.023380995 -0.027078424 0.032504436 0.002482105 -0.029525567
-0.030152462 -0.028714318 0.0069064465 -0.03685082 -0.06162238 -0.06693962 -0.07134305 -0.09116461
-0.14212574 -0.14754596 -0.10078446 -0.09808278 -0.06192662 -0.07971877 -0.07924517 -0.038550068
0.002430207 -0.03848814 0.013279847 -0.028677383 -0.017086906 0.03269201 -0.012264298 0.0005511307
0.013058115 0.026903491 0.059157535 0.063871495 0.015108521 -0.010323646 0.0442155 0.020716695
-0.06850044 -0.034887224 -0.057022054 -0.13315964 -0.12328768 -0.07944642 -0.012297309 -0.007350981
0.0018793107 -0.0028576222 -0.011538103 -0.034858093 0.003224635 -0.019786537 0.022521619 -0.007830781
-0.025224058 -0.011047009 -0.009294054 -0.0010726071 0.029006982 0.09700617 0.06790884 0.031834446
0.07127604 0.11447523 0.11103121 0.039048366 0.045606934 0.021224547 0.05946957 0.032108106
-0.0628175 -0.062307127 -0.10722816 -0.103727825 -0.03093229 -0.0074069574 0.042141035 0.024357317
-0.041940246 -0.005844393 0.013917663 0.005508369 0.033094335 0.0027069338 0.019165674 0.057141636

bias f4 [256]
00000000: 87ab a93b df68 c5bc f731 0ebd 7362 85bb
00000010: c477 84bd ecd3 acbc 78b4 2ebd 776a bdbd
00000020: 4412 a4bd 1e9a dc3c fb0b c9bc ebc5 a1bc
00000030: 5a3d eebc 9f67 2fbc 5971 153d bba6 7dbd
00000040: 75c6 cc3c 28c2 a0bd c8f7 aabd 82bd 1abd
00000050: f3cc 87bd 7295 b4bc 4f02 1abd 85e4 acbd
00000060: 1956 f83c 2452 723c 194e 423c efea 89bd
00000070: 4b59 af3c f62a 7fbd 13db 53bc d9e5 31bd
00000080: 8d5c 4abd 72e3 f7bc b5f1 22bc d141 c9bd
00000090: 8370 5fbd 5603 5cbd b45c 00bd 92b6 36bc
000000a0: 0ea6 86bd 9a3a 8fbb 778b 82bc 19f0 95bd
000000b0: 3068 febc fc71 d2bc 4274 02bd 7d41 31bd
000000c0: 55e9 9bbd 1bde 69bd 8ca2 1dbb 932f b53c
000000d0: fa9b 34bb 1e65 55bd f9f0 063c b5a7 99bc
000000e0: c486 00be 9e10 d2bc 2a47 44ba 78fc 80bd
000000f0: 4d8f 1bbd f254 39bc cc60 043c 13fa 8bbd
00000100: df62 70bc 6192 90bd 05bf 413c 88c1 283a
00000110: 21ec 57bd e076 08bd 9874 58bc b42f b6bc
00000120: 7b2b ccbd 80b2 d537 fc8c 8dbd dd6a 3ebd
00000130: b618 48bd 593e 053d 015a 82bc 75ef f2bc
00000140: 88f8 55bc 79ac e4bc 5127 b6bd 9d85 76bd
00000150: 1062 5abc 6979 4dbd f58f 86bb fb93 6abd
00000160: 1b80 3bbc 2ba3 22bd 3ca9 11bd ebf7 6cbd
00000170: 348e 77bd 178f 60bc 9ded 12bb 6303 b83c
00000180: adfd dabc 629a c1bc 4858 68bd e12d 87bd
00000190: 5481 fabc 7056 acb9 3009 a5bd 6066 a4b9
000001a0: 0942 67bc 5b06 67bd 8941 3bbc 0eb4 a9bb
000001b0: 0cc6 05bd 9766 e9bc a9be 18bd 74d8 42bd
000001c0: 4daf 5fbc bbdf d7ba ccd0 133d 8322 0dbd
000001d0: 8a59 6ebb c3bc 53bc bf00 fbbc d558 063d
000001e0: bbc6 a4bd 05ce f2bd 74ba 1d3b 9ebb 7b3c
000001f0: 1a2a 67bd 19b9 c23b 6c3e 85bd eb09 043b
00000200: 6685 783b 1f4f e7bc dc6d 83bd 98ac 13bd
00000210: 6547 5bbd 300c 46bd 4ee8 9cbc f5de 12bb
00000220: 0b22 30bd 0f63 27bc f0ff 38bd 2b91 1abd
00000230: 39e4 253c 40ab c63b a381 e5bb 1e20 48bc
00000240: c9af 21bd 6ab8 8abd de41 eb3c 7cba 84bb
00000250: a737 2bbd 6464 e5bc 1be9 7bbd e114 673c
00000260: 6a5b 0bbd bf5b 04bd 94f0 e3bc e827 de3a
00000270: bc48 0bbd cc7a f6bb 0a3c 51bc 7cb5 adbd
00000280: 8114 e1bc c34d a2bc c991 02bd be37 debc
00000290: 8258 a4bd 2e53 44bc b27e c43b 7566 f2bc
000002a0: bdd2 a5bd 25ef 6abd b795 38bd 20ec 6ebd
000002b0: da83 83bd f787 13bd b47f 74bc 566a f3bc
000002c0: 57de 54bd fd07 9fbd f42c de3c ffb8 e83c
000002d0: 808c 8fbc 635d 1dbd 601e c4bc 436b b8bd
000002e0: d451 2ebc 2825 07bd 8278 11bd 8918 5b3c
000002f0: dc08 4fbd 8bd6 e43c f6ef 03be 9319 a8bd
00000300: 8670 3cbd 7fd2 94bd d428 f2bc 96fa 68bd
00000310: 77f0 2cbd 8162 92bd 88ec 97bd f0f5 0bbd
00000320: 3da7 1ebd 6678 fbbc dc68 02bd 25a1 8dbc
00000330: 0ae3 47bd ce75 3abd 4268 d4bc 1489 aabc
00000340: c20f 30bc ee13 373c 80e5 c2bc 5a5c 61bd
00000350: b11f d53b a918 ccbc 8986 53bc 0f14 e1bd
00000360: 118e 8cbd fa90 86bd cc2b 4b3c 3805 babd
00000370: d121 573c c2fd 4cbd 0b31 e33c dc50 fabc
00000380: 6da1 43bd 4dbf 84bd 0c8e 5ebc 1cc0 91bd
00000390: 022f bdbd 4998 ea3c 11c2 d7bc f2fe 0a3d
000003a0: a030 27bd 2b54 e5bc 5076 c7bd 64ce 08bd
000003b0: c517 97bd fb4d eebc a987 12bd 62c8 a1bc
000003c0: 1e05 633b f2ce abbc c48c 59bd 09e5 82bd
000003d0: cb5a 0ebd a924 4cbd 8410 b43c 01be aabd
000003e0: 3321 38bc 6640 ee3c 0377 7cbc 4080 21bb
000003f0: 5219 4abd 752c 0fbd 2a53 b0bd ccb7 01bd
0.0051779184 -0.024097858 -0.03471562 -0.004070574 -0.06468156 -0.021097146 -0.042652577 -0.09248822
-0.080112964 0.026928958 -0.024541846 -0.019747695 -0.02908199 -0.010705858 0.03648505 -0.061926585
0.024996975 -0.07849532 -0.08348042 -0.037778385 -0.06630888 -0.022043917 -0.037599858 -0.08442024
0.030314492 0.014790092 0.01185944 -0.06734263 0.021404883 -0.06229683 -0.012930649 -0.04343209
-0.04940467 -0.030259822 -0.009945323 -0.098270066 -0.05455066 -0.05371412 -0.03133841 -0.011151927
-0.06574641 -0.0043709995 -0.015935643 -0.073211856 -0.03105554 -0.025689118 -0.031849153 -0.043275345
-0.07612864 -0.057096582 -0.0024053184 0.022117412 -0.002755879 -0.052098386 0.008236163 -0.018756727
-0.12551409 -0.02564269 -0.0007487411 -0.062981546 -0.03797846 -0.011311756 0.008079719 -0.06834807
-0.01467201 -0.070591696 0.011825328 0.000643753 -0.052715424 -0.033316493 -0.013211392 -0.022239543
-0.09969231 2.54747e-05 -0.06911656 -0.04648863 -0.04885169 0.032530162 -0.015912058 -0.029655198
-0.013059743 -0.027914273 -0.08894218 -0.060186017 -0.013329044 -0.050164614 -0.0041065165 -0.05727003
-0.011444117 -0.03970639 -0.035561785 -0.05785362 -0.06043835 -0.01370599 -0.002241946 0.022462552
-0.02673229 -0.023633186 -0.056724817 -0.066005476 -0.030579247 -0.00032870797 -0.08058393 -0.00031356793
-0.014114865 -0.056402545 -0.011429199 -0.005178935 -0.032659575 -0.028491301 -0.037291203 -0.047569707
-0.013652635 -0.0016469875 0.036087796 -0.03445674 -0.0036369287 -0.012923422 -0.030640004 0.03279956
-0.08045717 -0.11855701 0.0024067434 0.015364556 -0.056436636 0.0059424755 -0.06506047 0.0020147513
0.0037921309 -0.02823597 -0.064174384 -0.03605327 -0.053534884 -0.048351467 -0.01915374 -0.0022410725
-0.043001216 -0.0102164885 -0.045165956 -0.0377361 0.010125213 0.006062895 -0.0070039793 -0.012214689
-0.039474282 -0.067734554 0.028717931 -0.004050551 -0.04180112 -0.028001972 -0.061501604 0.014104099
-0.034022726 -0.03231406 -0.027824678 0.0016949149 -0.03400491 -0.0075219627 -0.012770662 -0.08481881
-0.027475597 -0.01981247 -0.031877313 -0.02712619 -0.08024694 -0.011982722 0.0059965486 -0.029589871
-0.08096836 -0.057356972 -0.045064654 -0.058330655 -0.06421633 -0.036018338 -0.014923025 -0.02971379
-0.051969852 -0.077651955 0.027121045 0.028408526 -0.01752305 -0.03841914 -0.023940265 -0.090048335
-0.0106396265 -0.03299442 -0.035515316 0.013372549 -0.05054556 0.027934333 -0.12884507 -0.08208003
-0.04600575 -0.072667114 -0.029560484 -0.056879602 -0.042221513 -0.071476944 -0.07418162 -0.03417009
-0.03873371 -0.030697059 -0.031838283 -0.017288754 -0.048800506 -0.045522504 -0.02592862 -0.020817317
-0.010745944 0.011174185 -0.023791075 -0.055019714 0.006504022 -0.024914103 -0.012910494 -0.10990154
-0.068630345 -0.06570621 0.012400579 -0.09083027 0.013130621 -0.05004669 0.027733346 -0.030556135
-0.04776137 -0.064818 -0.013583671 -0.0711672 -0.09237482 0.028637068 -0.026337655 0.03393454
-0.040817857 -0.027994236 -0.09739363 -0.033399954 -0.073775806 -0.029089918 -0.035773907 -0.01974887
0.0034640501 -0.020972703 -0.05311276 -0.06391341 -0.034754556 -0.04983965 0.021980532 -0.083370216
-0.011238384 0.029083442 -0.015409234 -0.0024643093 -0.049340554 -0.034954507 -0.08609612 -0.031669423

weight f4 [64, 256]
00000000: 8662 4ebd 92d4 103d f685 ca3d 02a3 1a3e
00000010: dc10 893d 5838 47bc 9561 9fbd a008 abbd
00000020: 53b8 aabc fcdb 393d 63e0 bbbc e78f 6bbe
00000030: d9a9 383e 9e6f 01be b248 f43c d291 c5b9
00000040: 44f0 ccbd 6183 13bd 96fd 7e3d b5da fe3d
00000050: a168 213e 34a9 143c 7970 a73c 0e79 8d3c
00000060: 0b10 4a3e d1da 8cbd b2a0 b039 bd4d 22be
00000070: 6063 943b 76f5 e23b a7a8 983d a8d3 a5bd
00000080: 37aa bc3d 8156 62bd 5424 903d ff08 fabc
00000090: 1cae 30bd 97d8 933d b119 333c 97e4 553e
000000a0: 6f8f 1e3d fe78 cd3d 5e86 0f3d 948f d9bd
000000b0: 83c7 a03c 23a5 95bc 05bc cc3c 21d2 42bd
000000c0: e1f4 abbc c821 b43c b80f 17bd 31f7 80bd
000000d0: c1df 93bc 8e53 d23c 562f 433d 51bd 4fbc
000000e0: 183b 3abd 9101 9e3c 09d4 1a3d 7316 6d3e
000000f0: e69c 263c 11a0 49be 1832 afbc ddb6 6e3d
00000100: 3b5f 31be 1941 97bd 9768 be3c 5dbd d9bd
00000110: a0e5 823b 8ee9 38bd 2977 12be a2ff 4fbc
00000120: 3028 ecbd c9f8 573d 5b37 fdbd 9b05 0bbe
00000130: 3822 be3c 5212 28bb f692 cdbd 8205 59bd
00000140: a413 193c 6a1c 003e 2fb5 5fbe 422e cb3d
00000150: add1 3a3d 621a c4bd 6d8f f6bd 216e 1bbe
00000160: acfb 12be 0db3 d83d a237 e1bd 5615 253d
00000170: 7ba2 07be 4efd 31bc 99f8 a63d 982d 133b
00000180: 811d 063e 3869 a83c 888c a0bd 9b5a 29bc
00000190: affe 17be 0b1f 18be a7e7 013e ee02 1b3d
000001a0: f6fd 9abb 4f6c 893d fe72 ae3d e4c7 d13d
000001b0: e3bc 79bd 6e8a 053e 4062 0bbd 15db 8e3e
000001c0: 42a5 2d3e b593 e5bd 8de7 103e 1ab5 5e3c
000001d0: 0bf4 90bd 9252 bbbd c7ed b4bc f5a8 84bd
000001e0: cce3 bbbd 7783 6c3d e68f 813b 722c 1abe
000001f0: fbae 0fbd 94e4 b9bd 594c 0fbe b01c 583c
00000200: 8168 043d 0c84 8cbd f614 a9bd 67dd 2fbd
00000210: e8bc 7cbd c7b9 85bc 3e14 b5bc 6381 d93c
00000220: 6a5c ffbd 8d48 9b3d b6d9 2fbd 952c 68bd
00000230: 2c0d 7fbd 6a42 303d 137d eebd 126b a13d
00000240: ef09 3cbb 3d8e b43d cdb1 743d 0ed6 883b
00000250: 1284 32be 06ad 833d 6c2c 0cbe de62 a23d
00000260: 8dae 90bb 1ae8 b43b 9644 a8bd 18ff 5c3d
00000270: b2b2 04be 30d3 ce3c 4556 0ebe 784b 4ebd
00000280: abf4 27bd ebe7 bbbd 32ba 0f3e 097f 07bd
00000290: bfca c03d 5f0f d6bc af81 503d 5187 b2bb
000002a0: 9b75 c73d 0f43 f7bd 5a4e 38bd 326c 143e
000002b0: 9fec fe3d 485f 9a3c 178d a33d 348c 343e
000002c0: 3f47 3c3d 776a d8bc 767f 4bbd 0537 363c
000002d0: 0fbc 25bd 7133 f3bc 9f15 eebd 80e1 a43d
000002e0: 829c 3bbe 7420 7a3d 67c9 3fbd 2f20 1ebc
000002f0: 9a20 c1bc c029 10bd d951 64bd b4df e8bd
00000300: 0d5e af3d 1117 15bc 2834 02be 7e68 2abe
00000310: 4873 863d 02e5 8fbc a64d 3dbd af70 833c
00000320: 7d06 733d 3311 e23d a47b c3bc 3054 7a3c
00000330: 00ba 763c 498c 53bd 769e eb3d b944 9ebd
00000340: d76f cdbc b111 23bd 59d8 2c3e da7f f13d
00000350: fde3 dcbd 4fc6 acbd 3138 26bd 5189 d1bc
00000360: 9feb 6ebd bc00 6a3d 6258 a23c fdf4 2abe
00000370: deeb c2bc 1ecd 2bbe aa52 22be e3d1 16be
00000380: a0aa 5ebd 45e9 bdbc e9c3 c03c cf30 b2bd
00000390: 828f 01bc 99ac 75bd 1bb1 743d 5c84 983d
000003a0: 6934 78be bb40 cdbc 49c5 233e cd11 ce3b
000003b0: 776f ec3d 9492 bdbd 2fa3 a8bd 1382 ae3d
000003c0: 40a4 18bd 834c d53c 8017 e6b9 b250 23bd
000003d0: b63e 1e3c 4abd f0bd ba4a d3bd fbf4 2cbd
000003e0: 18c1 333d 3b12 71bd 2761 6bbd a5c1 f03b
000003f0: 8a27 8d3d 0984 4cbd 4c6a d3bd d2d5 0e3e
-0.050386928 0.035358973 0.09888832 0.15101245 0.06692669 -0.0121594295 -0.07782284 -0.083512545
-0.020839846 0.04537581 -0.022934144 -0.23004113 0.18033542 -0.12640235 0.02981982 -0.00037683413
-0.100067645 -0.036013965 0.062253557 0.12444059 0.15762569 0.009073544 0.020439373 0.017269637
0.19732682 -0.068776734 0.00033689063 -0.15849967 0.004528448 0.006926234 0.07454043 -0.08097011
0.092121534 -0.055258278 0.07038179 -0.030521868 -0.043134794 0.072190456 0.010931418 0.20887981
0.038711008 0.10032843 0.035040252 -0.106230885 0.019626385 -0.01826722 0.024991998 -0.047563676
-0.02099079 0.021988764 -0.036880225 -0.06297148 -0.01805103 0.025674608 0.047652565 -0.012679414
-0.045466512 0.019287856 0.03779987 0.23153095 0.010169243 -0.19689967 -0.021386191 0.05827986
-0.17321484 -0.07385463 0.023243232 -0.10631821 0.0039946586 -0.04514461 -0.14303268 -0.012695225
-0.11531103 0.052727494 -0.12364074 -0.13576357 0.023209676 -0.0025645685 -0.10037796 -0.05298377
0.009343062 0.12510839 -0.2184646 0.09920932 0.04561012 -0.095753446 -0.12039075 -0.1517873
-0.14353818 0.10581026 -0.10996939 0.04030355 -0.13245575 -0.010863615 0.08152885 0.0022457596
0.13097192 0.020557985 -0.07839304 -0.010336543 -0.14843248 -0.14855592 0.12686025 0.03784459
-0.0047299815 0.06710111 0.08518027 0.10243204 -0.060971152 0.13041088 -0.034029245 0.2790152
0.16957572 -0.112098135 0.1415083 0.013592983 -0.070777975 -0.091466084 -0.022086037 -0.064775385
-0.09174308 0.057742562 0.0039539216 -0.15056017 -0.035078984 -0.09076801 -0.13993968 0.013190433
0.032326225 -0.068611234 -0.08255951 -0.042935755 -0.061703593 -0.016323937 -0.022104379 0.026550954
-0.124687985 0.07582197 -0.042932235 -0.05668314 -0.06226842 0.043032087 -0.1164495 0.0788175
-0.0028692444 0.08816192 0.059739877 0.004175908 -0.17433193 0.06429486 -0.1368882 0.07929014
-0.0044153393 0.0055208327 -0.08216207 0.053954214 -0.12958792 0.025247186 -0.13900097 -0.05036494
-0.041004818 -0.09175094 0.14035872 -0.033080135 0.09413671 -0.026130376 0.050904926 -0.00544826
0.09739228 -0.12073337 -0.044996597 0.14494398 0.12447476 0.018844262 0.07985895 0.17631608
0.045966383 -0.026417954 -0.049682103 0.011121516 -0.04046255 -0.029687615 -0.11625218 0.08050823
-0.18321422 0.061066106 -0.04682293 -0.009651228 -0.023575116 -0.035196066 -0.05574212 -0.11370793
0.08562861 -0.009099738 -0.12715209 -0.16641423 0.06564957 -0.017565254 -0.04621663 0.016044943
0.05933236 0.11038437 -0.023862667 0.015278861 0.015058994 -0.05164746 0.115048334 -0.077279516
-0.025077743 -0.039811794 0.16879405 0.11791964 -0.10785673 -0.08436262 -0.040580932 -0.025578173
-0.058330175 0.057129607 0.019817535 -0.16695018 -0.02379411 -0.16777465 -0.15851846 -0.14728503
-0.05436194 -0.02318252 0.023530917 -0.08700716 -0.00790775 -0.059979055 0.059739213 0.074471205
-0.24238743 -0.02505528 0.15993227 0.006288743 0.11544698 -0.09256473 -0.0823425 0.085209034
-0.037266016 0.02603746 -0.00043886527 -0.03987188 0.009658506 -0.11754854 -0.10316987 -0.04222582
0.04388532 -0.058855277 -0.0574657 0.007347303 0.06892307 -0.049930606 -0.10323009 0.13948753

bias f4 [64]
00000000: 1446 c33b e415 593d 02bb e3bb dc49 4f3c
00000010: e376 903d 9772 66bd f4d0 783c 74c6 2abb
00000020: 292d 263d 9729 2bbd 714c dd3b bd61 9abd
00000030: dc51 be3a bc72 42bc 5927 59bc edd7 00bd
00000040: 9f10 f5bc 99ed 3ebd 2984 09bd d838 24bc
00000050: fed4 39bb 02c0 383c 1cd7 24bd 9245 c53d
00000060: 8c88 b9bd 5091 8fbc 3806 b0b9 d81b 583d
00000070: 9865 a9bc f5d4 0ebd f93a 4ebd 64cd 6aba
00000080: 9cf8 143d 3bd6 86bd 1f6d c4ba 5b8f babd
00000090: e2c4 6cb9 1c07 b8bd 2c9f 32bd cc25 0dbd
000000a0: ca31 a3bd d460 b63c d53d c4bc 0925 293d
000000b0: 7fb3 7f3d cecd f8bc 72f6 cfbc 3aaa 733b
000000c0: c58a 5abd 312c 43bc baad c03a a496 823c
000000d0: 26d1 2e3c 665d 4fbc af14 30bc 7103 c2bc
000000e0: 5aa2 923d f747 14bd 05af 64bd fcbb 2ebc
000000f0: bc3a 4c3d 6143 a63d 74c8 6fbd c144 203d
0.0059592817 0.052999392 -0.0069497833 0.012651887 0.07053926 -0.056261625 0.015186537 -0.0026058229
0.04057041 -0.04178771 0.0067534973 -0.07538173 0.0014520246 -0.011868175 -0.01325401 -0.031455923
-0.029915152 -0.04661331 -0.033573303 -0.010023318 -0.0028355713 0.011276247 -0.040244207 0.0963241
-0.090592474 -0.017525345 -0.0003357397 0.05276093 -0.020678326 -0.03487106 -0.05034921 -0.0008956997
0.036369905 -0.0658383 -0.0014986134 -0.09109374 -0.00022580058 -0.08985731 -0.04360883 -0.034459874
-0.07968481 0.022262968 -0.023955265 0.041295085 0.06242704 -0.030371573 -0.025386069 0.003718032
-0.053354997 -0.0119123915 0.0014700212 0.015940972 0.010669982 -0.012656545 -0.010747119 -0.023683282
0.07159872 -0.036201444 -0.055830974 -0.010664936 0.0498607 0.0811832 -0.058540776 0.03912807

weight f4 [10, 64]
00000000: 34a2 6bbe ede9 11bf 0d77 7abe bee5 4a3f
00000010: 88b6 08be f19b f9bc 2f09 cd3e 745e 7e3f
00000020: 75d8 a93e 6640 07bf b2d9 813e cbc0 40bf
00000030: 8ae9 e6be 95ff d73e d7d1 ff3e 6ba1 b73e
00000040: 0add 7ebe dc12 203f 766c dd3e aad8 233f
00000050: d47a 803f 8dc6 5fbf 1cf8 c0bd f8b9 81bf
00000060: 3cc8 533f 2c8a ee3e 57f7 e7bf ef1e 8f3e
00000070: e300 93be 8eb0 163e 5ad7 7abb ced7 a5be
00000080: 4821 29bf dbf8 c5be 78de 233f ddb5 7cbf
00000090: a02f 7fbe 1fb4 2b3f 84e5 2bbf e560 8f3c
000000a0: 1a05 2ebf a455 ed3e 1134 e73e e885 38be
000000b0: 6d40 2ebf 975e 08bf b9d6 6cbe 285a 213f
000000c0: ca41 90be 0986 49bf 4a34 b9be 9f05 52bf
000000d0: a3c8 e6be 1599 8e3d b0c2 11bf 0daa 05bf
000000e0: 1445 cfbe 22c1 553e 5be3 dd3f bad1 343f
000000f0: c68c e53e 8f74 80be ae84 f8bd 68be 6bbf
00000100: 6a6f ba3e bd59 c73e 7cbe 0b3f 6d3e 05bf
00000110: 7ffa 113f 8c8f 7e3e 0243 47bf 2dda 3bbf
00000120: a13f c4be f8ef 0f3e 1e55 2d3f 309e 7abe
00000130: 216f 9a3e 3e5d e4bd 7293 b1bf 671c 3b3f
00000140: 6dae 1dbd bfe4 21be 5d48 c33e 3880 07be
00000150: 4766 82bf ec83 953f 1a1b 043f 8ae6 6b3f
00000160: 3264 bcbe 4ad0 8bbf b119 a53e faec 58be
00000170: 3825 d5bd 9682 e03d 6f10 993e b7f1 d2be
00000180: 831b ddbe 3913 7ebf 62cc 89be f4e0 6bbf
00000190: 1a35 39be 3ecf 63bf 1d38 373f b45c ce3c
000001a0: e8f7 5f3f efb7 5fbf d18d 60be 6977 b33d
000001b0: 31cd c53e 09e1 35be 84f2 a63e 6149 98bd
000001c0: 63af 493f 3fc1 7f3f e568 a8be 96e1 0b3e
000001d0: d598 603e b371 87bb 77b0 313e 5299 103e
000001e0: cd43 41bd 2a1c 22bf b37d 2cbf 8f71 2dbf
000001f0: f50c 6fbf 25e8 b23e 4a11 373f c01e 9e3f
00000200: 52fc 0abf 04b3 a13d d001 6a3f 116a 7c3e
00000210: 35e6 49bf f5cf 263e ea1d b93e fbbf e23f
00000220: b805 543e adbf 6fbd 2665 263c d4ee ccbe
00000230: 3bc5 9f3f 1e2a 68be df16 653f d255 3f3e
00000240: 65f2 09bf 1a6b b4bd 607e 8ebe 3fd7 2bbc
00000250: a660 2cbf d7a8 323f 13c1 adbd b30d 5c3f
00000260: 96da 913e 8345 6ebe 48e3 10bf 8f60 353e
00000270: 5dd2 a33f 8051 a93e f925 ecbd d9e4 eebe
00000280: d34f cdbe ce0a 9a3f 1f9c 743e 2dff 743d
00000290: dd46 b33e 3c04 cd3f d5dd d7be d263 dbbd
000002a0: 407e 093f 41e8 86bd e949 abbd 7423 1cbe
000002b0: 3d46 33be 4b34 2f3d e847 cdbe 9f85 cebd
000002c0: 61d6 593e 574e 54bf 9230 543c 908f b03c
000002d0: d0aa c83d 85d6 d63e 0e8d e53d d09c 43be
000002e0: 5822 e5be 190a 103f 0958 85be 02db 343f
000002f0: ef63 7fbf 773e e9be 4049 8f3e c061 a03d
00000300: 146d 88be 21fa 8cbd 1890 3dbe 5098 04bf
00000310: a716 493f 37bb ba3a 7a72 6b3f 0378 4e3f
00000320: c175 983e 1b62 8f3f 3bd4 8dbe 9e35 c23d
00000330: e482 453e 80ea 80bd f86c e7bb cf98 0ebf
00000340: 8ea6 bebc 6877 a2be ee0f c83e c741 cb3b
00000350: 89fb 91bf d36b 713e 0a6b e7be 3251 1b3f
00000360: cc19 06bf ee0e 3abf eabd 0c3f f0c0 1bbe
00000370: eccd 82be db22 1d3f 83d2 a03e 3b5c cabe
00000380: eb13 e83e 223b f2be bee0 e83d 0b69 d7be
00000390: 8789 aa3e 1b02 2abf 64a5 2cbe 6633 743e
000003a0: 332f 96bf 191f 0abf d26a 4cbc aec0 7f3d
000003b0: 39f7 4c3f dfa5 21bf 080b 7ebe 4a23 74be
000003c0: 9dae a03d 74f3 423f 8500 4f3f 3658 1cbf
000003d0: cdf3 95be cd52 c73e 293c 403f 8a17 37bf
000003e0: a266 313f f747 003f 8246 aebf 3d0a 553f
000003f0: b14e 5d3f 4893 9e3e 0695 413f 69ea 64bf
-0.23011094 -0.5699757 -0.24459477 0.7925681 -0.1335088 -0.030469866 0.4004607 0.99362874
0.33172956 -0.5283264 0.253614 -0.7529418 -0.4510005 0.4218718 0.49964783 0.3586534
-0.24889007 0.6252878 0.43246812 0.6400248 1.0037484 -0.8741234 -0.09422323 -1.0134878
0.8272741 0.46589792 -1.8122357 0.27953288 -0.28711614 0.14715788 -0.0038275332 -0.32391208
-0.6606641 -0.38666424 0.64011335 -0.98715 -0.24920511 0.6707172 -0.6714709 0.017502258
-0.67976534 0.463544 0.4515691 -0.18019831 -0.68067056 -0.5326933 -0.23128785 0.6302819
-0.28175193 -0.78720146 -0.36172706 -0.8203983 -0.4507495 0.06962792 -0.56937695 -0.522126
-0.4048239 0.20874456 1.7335008 0.7063252 0.44833964 -0.25088927 -0.12134682 -0.9208741
0.36413127 0.38935652 0.5458753 -0.5204838 0.5702285 0.24859446 -0.7783662 -0.73379785
-0.38329795 0.14056385 0.67708004 -0.24474406 0.3016291 -0.11150597 -1.3873122 0.73090214
-0.038496424 -0.15809916 0.38141146 -0.13232505 -1.0187463 1.1680884 0.51603854 0.9214865
-0.36795193 -1.092294 0.32246163 -0.2118415 -0.104074895 0.10962407 0.2989535 -0.4120004
-0.43185052 -0.9924808 -0.26913744 -0.92140126 -0.18086663 -0.889881 0.7157 0.025190689
0.8748765 -0.87390035 -0.21929099 0.0876301 0.3863311 -0.17761625 0.326069 -0.07435871
0.78783244 0.99904245 -0.32892528 0.13660273 0.21933301 -0.004133427 0.17352472 0.14120987
-0.0471838 -0.63324225 -0.673793 -0.677514 -0.93379146 0.34942737 0.71510756 1.2353134
-0.5429126 0.07895473 0.91409016 0.24649836 -0.78866893 0.16290267 0.36155635 1.7714838
0.20705307 -0.058532406 0.010155952 -0.4002596 1.2482065 -0.22672316 0.89488024 0.18685082
-0.5388549 -0.088094905 -0.2783079 -0.01048833 -0.67334974 0.6978888 -0.084840916 0.85958403
0.2848708 -0.23268704 -0.56596804 0.17712615 1.2798573 0.33069992 -0.1153068 -0.46658972
-0.40099964 1.2034547 0.2388768 0.059813667 0.35015002 1.6016917 -0.42161432 -0.107123986
0.5370827 -0.06587268 -0.083637066 -0.152479 -0.17507263 0.04277448 -0.40093923 -0.1008408
0.21273185 -0.8293204 0.012951033 0.021552831 0.09798205 0.4196054 0.11208545 -0.19102788
-0.44752765 0.5626541 -0.26043728 0.7064668 -0.9976186 -0.4555547 0.27985573 0.07831144
-0.2664572 -0.06883646 -0.18511999 -0.5179491 0.7855019 0.0014246468 0.9197155 0.80651873
0.2977734 1.1201814 -0.27700981 0.09482883 0.19288212 -0.06294727 -0.0070625506 -0.5570192
-0.023272779 -0.31731725 0.39074653 0.0062029096 -1.1404887 0.23576288 -0.45198852 0.6067077
-0.5238311 -0.7267903 0.54977286 -0.15210319 -0.2554773 0.6138131 0.31410608 -0.3952349
0.45327696 -0.4731074 0.11370991 -0.4207233 0.3330805 -0.6640946 -0.16859967 0.23847732
-1.1733154 -0.539537 -0.01247664 0.062439613 0.8006473 -0.63143724 -0.24808896 -0.23841587
0.07845805 0.7615273 0.8086017 -0.610721 -0.29287568 0.3893036 0.750918 -0.7152029
0.6929723 0.5010981 -1.3615267 0.8321875 0.864482 0.30971742 0.75618017 -0.8942018

bias f4 [10]
00000000: e23d 94bd 012b c4be 0667 a03e 000a 63bc
00000010: fb2a 94be c37b 5dbd 3329 c43d 4e4a 1dbf
00000020: 2933 813f 62eb 063e
-0.07238366 -0.3831406 0.313286 -0.013857365 -0.28939041 -0.054073106 0.095781706 -0.61441505
1.0093738 0.13175729
